labos/actual_model_fast.pth (torch, 196647 bytes, 6 tensors)

linear_layer_stack.0.weight f4 [256, 55]
00000000: af06 f53e 48b4 e03d e9ec c63c 5630 da3e
00000010: b06e 31be cf11 a23c 69ce 13be de89 35bd
00000020: 351a c33d ae10 8bbe 83a2 813d dee6 fe3d
00000030: 2ef3 203f 16bf 93be a56f e2bc 088d 8b3c
00000040: 248a fdbc c732 3dbd dcaa 13bc 4228 553d
00000050: 1383 7dbd c16f d8bd 1052 04be bb00 903e
00000060: 1498 c5bd b30d cd3d 89c5 c93b 4e69 b8bd
00000070: 7717 26bc 7179 0cbe afd6 c13c 0bc4 54be
00000080: 78e5 443d e4a5 9b3d ec07 d3bd 6589 f93d
00000090: 791e f73d 6d97 793e 6381 3c3e a552 d3bc
000000a0: 7da6 7f3e 275b 2b3e 5ac3 7c3d 2c6f 9fbd
000000b0: e6b3 fdbc 8a70 49bd 8d2b 13be 0e23 1b3e
000000c0: 3323 a93d a7bd b4be 4a87 25be 665e 62be
000000d0: 3a5a 53bd 3398 3a3d 549a 393e 8f5b 163f
000000e0: a181 f53e 46c8 a03d acf4 9a3e 8e1e 25be
000000f0: 873a e03d 5da5 c0bd 387b 14bc 3ca3 05be
00000100: 1d50 49bd cebb 8bbe 45b9 c63d 844d b93d
00000110: 1485 4b3e 4764 5bbe 3dc5 25bd 13dd c53d
00000120: b5fc 253e 70bf 8bbe e276 ad3c 5b2c e5bd
00000130: 9852 9ebc e91d 543d 383d d0bd 0ef8 d33d
00000140: 1719 953d b506 d3bc 7739 7dbe e858 83bd
00000150: c849 da3e 1c2a e53c 6c61 033d f98b df3d
00000160: 39a0 99be 6de8 60bd 3eda 8c3e 4c7c 41bc
00000170: 8237 693d 1401 41be 8f76 83be 4020 193e
00000180: 095d a83d a1ad 983c 83cb b63d 2b09 7e3d
00000190: 47a0 d43c fbf2 8bbd cbdf 7ebe 3557 3f3e
000001a0: b9de a6be 8026 a0be 8b1e e7bd a481 87be
000001b0: ba95 dc3c 68e5 cabe e755 993d 13c7 17bc
000001c0: 81bf cd3d 96d7 d13d 9f1b eebd b8c6 4bbe
000001d0: ddf6 dcbd 77d8 01be b73c 0bbe daa0 18be
000001e0: 5e13 d13d 51d8 e13c 26d0 f8bd cf81 253d
000001f0: 4446 00bf fcbc 9fbc 0f6e 42be a57a bebd
00000200: acb1 dc3e 221e a13d c367 b83e cab4 663d
00000210: d984 3fbd e918 553d c1ae ab3d ec44 83be
00000220: 26d6 c1be 73d6 e8be 8c07 c93d 268b d0bd
00000230: 9423 e5bd db41 b8bd e3fa 5d3e a38b 253c
00000240: 0e23 d1be 7ffc ae3e e7e2 a9bd daeb a6bc
00000250: 086d 8f3e 9034 a8be ed38 e43d ba88 ab3d
00000260: c838 2d3d 0aef 7fbe 3857 2f3e 665d 31bd
00000270: c4cc 993e a4ae 3d3e 54db d1bc 5beb 71be
00000280: 5871 a8bd bb57 e23e f22f 1d3d e09c e9be
00000290: 797e 28bd b09b 33bd 6339 d1be 3351 ab3e
000002a0: b351 933e ef14 69be 5bfb 11bd 03bc 23be
000002b0: 4f8b cb3d 4ad5 2abe 232e e5bd 1fbe 77be
000002c0: a34e babd 0986 343d 1f44 413e 33d9 f9bd
000002d0: 1e76 973d cc07 6d3c 6ca5 773d b6d2 a13d
000002e0: d65d ad3e 6285 dfbd 5e42 913e 0de2 173d
000002f0: ea78 903d d268 a6bc a300 573e 49f8 67bc
00000300: c740 f1bb be3f 283d fb0b 02bd cf99 71bc
00000310: 5425 4cbd e94c 293e 4dd7 b9bd ae47 9cbc
00000320: 5cb5 d03c eeca 023d 873c 303e 55db 30bd
00000330: 963b f3bd 4ad7 05be 5b1b 95bd 5cd4 833c
00000340: f81a 4bbe e22d 4a3e 1439 a43e 7d5a a03d
00000350: 6639 8e3d 0c4f d6bd 7b11 8bbe 667c 243e
00000360: 5e8e b33e 004d d13a e596 7abe 33fa 33be
00000370: 9d91 cebd 180f 03bc cac5 e93c dd7e ae3e
00000380: 236a 85be fed2 91be c197 243e ccee 83bd
00000390: 9739 28be e2c6 1abe 8a80 233e 4bc0 003e
000003a0: bc0a 643c 61b0 453e 192e 6d3d e658 c23d
000003b0: 9dd1 873e 94b9 08be f83f 16be cade afbc
000003c0: 50eb c83e 59f5 81bd d730 0bbe e062 cdbc
000003d0: 4395 c5be d344 05bd 27bb d4bd 97e1 073e
000003e0: acf8 80be 6f89 3abe 2aa0 bdbd 9f93 67be
000003f0: b66b 8abd 675b 84bd 1390 bdbd 940a a7be
0.47856662 0.10971886 0.02428289 0.42615002 -0.1732738 0.019783882 -0.14434208 -0.044320934
0.09526483 -0.27161163 0.06329825 0.12446378 0.6287106 -0.28856725 -0.027641127 0.017035022
-0.03094966 -0.046191003 -0.009012904 0.052040346 -0.06189258 -0.1056819 -0.1292193 0.28125557
-0.09648147 0.100123785 0.006157581 -0.0900446 -0.01013743 -0.13718201 0.02366194 -0.2077791
0.0480704 0.076000005 -0.10304245 0.12184409 0.12066359 0.2437417 0.18408732 -0.025796244
0.24965854 0.1673399 0.06170974 -0.07784876 -0.030969571 -0.04917959 -0.14372082 0.15150091
0.08258667 -0.35300943 -0.1616489 -0.22106323 -0.05159972 0.045555305 0.18125278 0.5873346
0.47950462 0.07850699 0.30264795 -0.16124937 0.10948663 -0.094065405 -0.009062581 -0.1305055
-0.049148668 -0.2729172 0.09703306 0.09047988 0.19874984 -0.21424972 -0.040471304 0.09661307
0.16209681 -0.27294493 0.021174852 -0.11190101 -0.019326493 0.051786337 -0.101679265 0.10350047
0.07280176 -0.025760034 -0.24728952 -0.06413442 0.42634416 0.02797418 0.03207533 0.109153695
-0.30005053 -0.05490916 0.27510256 -0.01180942 0.056937702 -0.18848068 -0.2567639 0.14953709
0.0822087 0.01863748 0.089255355 0.062020462 0.025955332 -0.06833454 -0.24890058 0.1868561
-0.325918 -0.31279373 -0.112851225 -0.26466095 0.026926864 -0.39628148 0.07487088 -0.009263772
0.10046292 0.10246198 -0.11626362 -0.19900024 -0.10789273 -0.12680231 -0.1359738 -0.1490511
0.10208772 0.027568968 -0.12149076 0.040407 -0.50107217 -0.019499294 -0.18987297 -0.09300736
0.43104303 0.078670755 0.36016664 0.056324758 -0.046757553 0.05202571 0.08382941 -0.2563852
-0.37858695 -0.45476112 0.098158926 -0.101827905 -0.111884266 -0.08996936 0.21677737 0.010104093
-0.40847057 0.34177014 -0.08295231 -0.020376135 0.28012872 -0.32852602 0.1114367 0.08375688
0.04229048 -0.2499353 0.17123115 -0.043301962 0.30039036 0.18523651 -0.02561728 -0.23624937
-0.082247436 0.44207558 0.038375802 -0.456275 -0.04113624 -0.043849647 -0.40864095 0.33460388
0.2877327 -0.22761892 -0.035640102 -0.1598969 0.099386804 -0.16682926 -0.111904405 -0.24193619
-0.0909703 0.04407314 0.18873642 -0.121996306 0.07395576 0.014467191 0.060460493 0.07901518
0.33860654 -0.10914113 0.28370947 0.037080813 0.070543125 -0.020313654 0.20996337 -0.014158317
-0.0073624584 0.041076414 -0.031749707 -0.0147461435 -0.049840286 0.16533245 -0.090742685 -0.019077148
0.025477104 0.03193181 0.1721059 -0.04317792 -0.118765995 -0.13070408 -0.07280608 0.016092472
-0.19834507 0.19744065 0.32074797 0.07829759 0.06944542 -0.10464296 -0.27161774 0.16063079
0.35069555 0.0015968382 -0.24471624 -0.17575912 -0.10086367 -0.007999204 0.028536696 0.34081164
-0.26057538 -0.28481287 0.16073515 -0.06442031 -0.16428219 -0.1511493 0.15967003 0.12573354
0.013918575 0.19305564 0.05790529 0.09489612 0.2652711 -0.13352042 -0.1467284 -0.021468539
0.3924203 -0.063456245 -0.1359285 -0.025071561 -0.3859044 -0.03253634 -0.10387259 0.1326965
-0.25189722 -0.1821649 -0.092590645 -0.22614907 -0.067588255 -0.06462746 -0.092559956 -0.32625258

linear_layer_stack.0.bias f4 [256]
00000000: 6386 34be 6725 28bf 10de d2be fdc7 6ebe
00000010: 3e1d acbe 008d 93be f2a5 06be dced 67be
00000020: 474b 67bd 5929 0ebf 3296 97be 959a e3be
00000030: d4f9 40be c396 d03d 297b 18bf 6553 c9be
00000040: fc6b 56be 83b0 c4be e40c 57be 9ed6 7dbc
00000050: 35ab cdbd dfac cabe 5ce1 d33c 5f55 40be
00000060: c96d b8be be6b 7cbe fca8 adbd b40c 88bd
00000070: eada 05bf 2be4 10bf 6f10 08be 85a8 fabe
00000080: 1c74 8abe 1cac 87be e6d7 0ebf 5845 b3be
00000090: 12bd ebbe 1675 06bf 431a 9ebe c408 63be
000000a0: e6bc 26be 3377 06be 7e7e 17bf 1f0b 50be
000000b0: 717f c0be b0ad 9cbe 0379 9abe c36d 13bf
000000c0: 0c38 7bbe e66e ffbe fe12 9dbe a2b1 25be
000000d0: 35c8 bfbe c670 0cbf 0540 ccbe 9c28 91be
000000e0: e4e2 94be 0d59 4dbe f296 c2bd f19e 68be
000000f0: 1d55 9dbe 0e92 a3be 54d5 0dbe eba3 ec3d
00000100: 09fd d6bd bbaf 11bf d960 e5be b073 96be
00000110: d5b2 703d e5e5 b4bd 4ba8 1cbd 5f60 733d
00000120: 7c36 283e 4aba 91bd d2f8 ecbe ac93 88bd
00000130: fb13 53be b988 b3be 47f6 87be 8da2 86be
00000140: d3e1 fa3d 159c 61be 9e93 70bd 1a7f 8abe
00000150: 5bdb 18bd 7146 69be 203c 4dbd 62c6 abbe
00000160: da4d 13be 19da c8be 6c89 9cbe 3790 17bf
00000170: 7afa 49be acef 9abe 79dd 9abe 8018 93be
00000180: 6dbc 60be 91f9 abbe 2907 073d 7775 fdbe
00000190: 659c 89be 9d02 eabd 6f44 ffbe 3188 7abe
000001a0: 8dfd e5be 286a 5ebe 171f 93be e3d5 9abe
000001b0: 0072 acbe 9f3e 28be 4b04 dfbd b455 73bd
000001c0: ae61 a4bd 455c 013d cc6d c6be b887 c2bc
000001d0: c1cd 6abe 10f6 91be f58a 6fbe 0355 a53c
000001e0: cd14 f8be 37c7 c0be ef00 9cbe 7cc7 9abe
000001f0: 4434 49be 1905 d9be 05d5 f9be cb46 27be
00000200: 44df 07be 5dbb aabe ec9e 20bf 6349 f9be
00000210: b7dc d8be 8e5f fabe fdbc 18be 37d1 f6be
00000220: 0200 bbbe 1fa3 b0be 3f33 c8be 0ae6 29be
00000230: 4229 f3be 4523 b2be 1b78 03bf d746 2dbe
00000240: 0bea 21be ebbf 19bf 79ba 76be a16a 80be
00000250: 0c00 f0be 6cc8 83be 9567 e6bd d076 cabe
00000260: d486 5bbd 2f3b 4abe 9e45 03be 7d62 0cbe
00000270: 6e97 cdbe 0bd7 c4be c4cb a3be 1097 e23d
00000280: 6949 89be 7235 973b 37e3 71be 1471 ad3c
00000290: 25d7 86be 76d0 24be a187 1ebf 9b72 9abe
000002a0: f594 b03d 40b1 b5be fc03 d7be 80c9 16bf
000002b0: bc76 12bf aa19 23be 52d1 fdbe 2130 60be
000002c0: 9798 f6be 47cd d3be 870e 2c3e 6ff2 f2be
000002d0: ce98 5fbe 42a2 fdbe b59f aebd bfe2 a6bd
000002e0: 59c7 35be 14bc 123d 59a2 1bbe 76f1 8cbe
000002f0: 760a 4cbe 67b5 11bf 10bf 1bbf 2f25 3bbe
00000300: 5f0c 07be 6585 a8be 8e9a b0be 60d9 73be
00000310: 6446 1fbf 3cf3 bbbd 6216 8bbe 90f5 b6be
00000320: 6f85 96be 188b 3fbe 7cf7 1abe 76fb a4bd
00000330: 64d7 e7be 815e 17bf 5634 78be 580f 43bd
00000340: 190c f83d cc8a bcbe d8d4 edbe a070 e6be
00000350: b3c4 b03e ff7a debe c605 e9be 3bee 9bbe
00000360: 15ae d3be fa76 25be e0ee c9be 6d04 85be
00000370: bb05 c1be 7e55 d3be 2521 c7be a274 cabe
00000380: 1ddb 92be 781c 31be e973 cb3c 5aa2 1bbf
00000390: 9847 60be 9b48 acbe e957 ddbe afde a8be
000003a0: 9059 45be b31f 99be c417 c0be 4b79 0cbf
000003b0: 90d2 a43d 895a b0be 9595 513d b142 f9bd
000003c0: cacb 34be 8f70 5cbe 0c98 9bbe b668 ebbe
000003d0: 0623 80be 24bb 833d 7aef acbe eb39 acbe
000003e0: 1e70 b5be 5cac 58be f519 aabe 169d 45be
000003f0: e44d ddbe c53a e0bd 3a1f aebe b53f 7abc
-0.1762939 -0.6568207 -0.41185045 -0.23318477 -0.3361606 -0.28818512 -0.1314924 -0.2264933
-0.056468274 -0.5553184 -0.29606777 -0.44453874 -0.18845302 0.101850055 -0.5956293 -0.39321437
-0.2093963 -0.38415918 -0.21001011 -0.015493063 -0.10042421 -0.39585015 0.025864296 -0.18782566
-0.3602126 -0.24650475 -0.08479497 -0.06643048 -0.5228716 -0.56598157 -0.13287519 -0.48956695
-0.2704171 -0.26498497 -0.55798185 -0.35013843 -0.46042687 -0.5252241 -0.3087941 -0.22171313
-0.16282997 -0.13131408 -0.59177387 -0.20316742 -0.3759723 -0.30601263 -0.3017045 -0.5758936
-0.24533099 -0.49889296 -0.30678552 -0.16181043 -0.37457433 -0.5485958 -0.39892593 -0.28351295
-0.29079354 -0.20053501 -0.09501447 -0.22716881 -0.30729 -0.31947368 -0.1385091 0.11554702
-0.104974814 -0.5690877 -0.4480045 -0.29385138 0.058764298 -0.088329114 -0.038246434 0.05941808
0.16427034 -0.0711561 -0.46283585 -0.06668791 -0.2061309 -0.3506525 -0.26555082 -0.2629589
0.12250104 -0.22032197 -0.05873453 -0.27050096 -0.03731857 -0.22780778 -0.050106168 -0.33549792
-0.14385167 -0.39228895 -0.30573595 -0.5920443 -0.19724455 -0.3026098 -0.30247095 -0.2872963
-0.21946879 -0.33588842 0.032965813 -0.4950368 -0.26877132 -0.1142628 -0.49856898 -0.24466015
-0.44920006 -0.21720183 -0.28734657 -0.30241308 -0.33680725 -0.16430138 -0.10889491 -0.059407905
-0.080264434 0.031582136 -0.38755643 -0.023746356 -0.22930051 -0.28508043 -0.23392852 0.020182138
-0.4845337 -0.3765199 -0.30469462 -0.3023032 -0.19648844 -0.42386702 -0.48795334 -0.16335599
-0.13268763 -0.33346072 -0.62742496 -0.48688802 -0.42355892 -0.48901027 -0.14915843 -0.48206493
-0.36523443 -0.34499452 -0.39101598 -0.16591659 -0.47492415 -0.34792534 -0.5135514 -0.16921555
-0.15811937 -0.6005847 -0.24094571 -0.2508135 -0.46875036 -0.25738847 -0.112502255 -0.39543772
-0.05359538 -0.19749139 -0.12819526 -0.13709445 -0.40154594 -0.38445315 -0.31991398 0.11063969
-0.2681382 0.0046145255 -0.23621832 0.021172084 -0.26336017 -0.16095147 -0.61925703 -0.30165562
0.08622161 -0.35486794 -0.41995227 -0.58901215 -0.57212424 -0.15927759 -0.4957376 -0.2189336
-0.48163292 -0.41367552 0.16802417 -0.47450587 -0.21835634 -0.49537855 -0.085265554 -0.08148717
-0.17751826 0.035823897 -0.1519865 -0.2752797 -0.19925866 -0.56917423 -0.60838413 -0.18275903
-0.13188313 -0.32914272 -0.34492916 -0.2381339 -0.6221678 -0.09177253 -0.27165514 -0.35734224
-0.29398677 -0.18705404 -0.1513347 -0.08055775 -0.45281518 -0.59128577 -0.24238715 -0.047622055
0.121116824 -0.36824644 -0.4645145 -0.450078 0.3452507 -0.43453214 -0.45512217 -0.30455193
-0.41343752 -0.16158667 -0.3944006 -0.2597994 -0.37699685 -0.41276163 -0.38892475 -0.3954211
-0.28682795 -0.17296016 0.024835544 -0.60794604 -0.21902311 -0.33649144 -0.43231133 -0.32982394
-0.19272447 -0.29906997 -0.37518132 -0.5487258 0.08047974 -0.34444073 0.051168043 -0.121709235
-0.17655864 -0.21527313 -0.3038944 -0.45978326 -0.2502672 0.064321786 -0.33776456 -0.33637938
-0.354371 -0.211595 -0.3322293 -0.19298205 -0.43223488 -0.109487094 -0.340082 -0.015273978

linear_layer_stack.3.weight f4 [128, 256]
00000000: c487 923e f5eb 943e 2eb3 a13b 1e07 bbbc
00000010: d6ba 363c 514c 2abd cabf 033d 0b46 01be
00000020: c99b 553e 8dd8 13be 48d6 8fbe 1547 6e3e
00000030: d096 17be 6e0b 57bd a991 943e 9ab6 a83d
00000040: 6e00 2abc 4048 77be 40a3 c83d fccb dcbd
00000050: 3c7d 6c3e d72c cb3d 2864 b33d 93e2 bf3c
00000060: 46ea 493e 79a2 99bc eb78 9d3d b1e5 08be
00000070: 5373 df3d 771c 9fbd 8dde 8bbd f6f9 67be
00000080: a569 b0bd 1fbe dcbd e806 ddbd d78d bbbe
00000090: e974 bf3e 9359 f4bd a624 b8bd e8f8 f9bd
000000a0: f1a8 12be 048a 3cbe df77 72bc 1638 fcbd
000000b0: 5e91 a4bd 4349 0cbd de51 c0bd 5230 893e
000000c0: c8b4 2bbd f29f 1fbc cc6a 2abd 057e 143e
000000d0: 1fa5 753d 5334 83bd c8d0 94bc 1474 06bc
000000e0: 08a1 f43d c734 c13e 544e cb3d cd7c 2cbc
000000f0: f6d9 3dbc b067 9d3d 2707 54be 3ea8 083d
00000100: 364e 37be 9239 ba3d 170b 7a3e 9f9e db3d
00000110: 71b9 fdbd fdf1 41bd 119f 5cbd 9d80 02bc
00000120: 5391 673e dbd2 1abe 3c43 753c b056 87bc
00000130: fc56 833d 1a55 f7bd dcca a5be b511 e9bd
00000140: 116c 89be 48df d7bd 3238 8fbd 577a 183e
00000150: a9c1 3b3d 3b98 a43b ad08 1e3e 4056 7b3e
00000160: 9896 b9bd dced 473e 954e 853d 6aec 1f3e
00000170: 5802 273e d567 e4bd 1f3b 2e3d 654d 593d
00000180: adbd 873d ce05 bbbc b877 5a3e dc79 c4bd
00000190: 0673 573e f62d e53d 0f2d 863e c765 92bd
000001a0: d854 1e3e f69e 1cbe 6490 2a3e abec 993d
000001b0: 7995 de3c 9b44 493c 1c1f 463e 38b5 81bd
000001c0: 27fa d5bc 1a69 d3bd b457 233b 7bc5 e33d
000001d0: e613 b33e 960c 053e 7306 f4bc 27a6 283d
000001e0: 56a0 96bd e525 a63e fcf2 4c3e dfd4 dbbd
000001f0: 2201 14be 24bd 71ba 8335 3ebd 72a3 70be
00000200: 4dca b63d ec7f b2bd 67eb 68be 5c00 983e
00000210: 7c6a 8a3d 152f cb3d f733 673e a3bc abbd
00000220: 3d72 abbc c47b 8dbd 29e1 4ebd e1de 24be
00000230: 3e9e 813e 0f89 3f3e 01f1 7dbe 4ea1 c13e
00000240: de6b babc c22f 593e f5cc 26be 932c 2bbe
00000250: f196 30bd 932f 5f3d 16ca 0f3d ffc5 36be
00000260: 7899 dcbd b860 5cbd 3c23 9e3c 71c4 f9bc
00000270: f739 9fbe 76cb 063e a375 843d d98a c4bd
00000280: 9b41 313e 2b43 25be 0e05 4ebb 1306 11be
00000290: 1373 8e3e 9562 343e f7de 23be 2671 b5bb
000002a0: 225c 813b c8db 033e 5ad5 b7be 4dac 993d
000002b0: e77e 1abe 34f7 053c 6e75 babe cb33 78bd
000002c0: f7d0 e23c 41e0 2a3d 84a6 c5bc c81c a13d
000002d0: e3db 87be a186 bcbd d503 db3d e423 8fbd
000002e0: 6d05 b73c a820 4d3d 2712 f1bc 5801 bfbd
000002f0: c30d 343d 7521 883e 948e 26be 7fc8 483d
00000300: cc92 89bd 1e73 d13e 2215 063d 6caa 16be
00000310: d381 d4bb f09d 843c cd07 bcbc c180 413e
00000320: 7523 97bc d917 313d ae58 edbd 1448 0abe
00000330: 08aa 23be 4c89 193e e162 063e daff c93c
00000340: 6ac5 c9bd 46a4 5e3e a2ea 01be e274 233e
00000350: 90ba 2bbe c1f1 123e 78cb 3ebd 8712 193e
00000360: d4fb be3d 5c43 70be ffcb 803c 9de1 1a3b
00000370: 9117 94bd e264 a5bd 6b82 7a3d cf20 113e
00000380: c7e5 78bd 8aa8 aa3c a966 20be 9997 5c3e
00000390: e8cb 523e d81f 213e ee7d 9e3c 488e 2abd
000003a0: e472 50bc aad1 233e cb37 413d 0e68 9f3d
000003b0: c8a6 1ebe 1b26 0a3e e003 82bd 55e4 edbd
000003c0: a4fa a83d cb10 5abc 94bd 98bc fddf c63d
000003d0: 8fb3 b13d 5c57 9c3d f280 8fbe 2330 49be
000003e0: faf2 c7be 1d8e 9bbe 26f5 38be b4dd 03be
000003f0: 3cff 78be cc9c 27bd 2588 91bd eb50 21bd
0.28619206 0.2908627 0.00493469 -0.022830542 0.011152944 -0.041576687 0.032165326 -0.12624376
0.20860209 -0.14438076 -0.2809317 0.23269303 -0.14803624 -0.052501135 0.2901738 0.082379535
-0.010376079 -0.24148655 0.097967625 -0.107810944 0.23094648 0.09920662 0.08759338 0.023423469
0.19718274 -0.01875423 0.07689079 -0.1336887 0.10910668 -0.07769101 -0.068295576 -0.22653946
-0.086139 -0.1077845 -0.10792333 -0.36631653 0.37393883 -0.119311474 -0.08991365 -0.12205678
-0.14322259 -0.18412024 -0.014799087 -0.12315385 -0.08035539 -0.034249555 -0.09390615 0.26794678
-0.041920453 -0.009742724 -0.041605756 0.14501198 0.059971925 -0.064064644 -0.01816596 -0.008206386
0.11944777 0.37735578 0.09927049 -0.010527802 -0.0115876105 0.076857924 -0.20705853 0.033363573
-0.17900929 0.09093012 0.24418293 0.10723614 -0.12388886 -0.04734992 -0.053862635 -0.007965234
0.2261403 -0.15119497 0.014969643 -0.016520828 0.06413075 -0.12076779 -0.32381332 -0.113803305
-0.2684026 -0.105406344 -0.0699314 0.14890419 0.045838986 0.00502303 0.15432997 0.2454462
-0.090619266 0.1952433 0.06509129 0.15617529 0.16309488 -0.11152617 0.04253685 0.053052325
0.06627975 -0.022829916 0.21334732 -0.09593555 0.21039972 0.11190407 0.26206252 -0.07148319
0.15462053 -0.15295014 0.16656643 0.07515844 0.027170883 0.012284423 0.19347805 -0.06333393
-0.026120258 -0.10322781 0.0024924101 0.11121651 0.3497612 0.12993082 -0.029788231 0.04117408
-0.073548004 0.32450786 0.20014566 -0.10733961 -0.14453557 -0.00092216046 -0.04643775 -0.2349985
0.089253046 -0.087158054 -0.22746049 0.29687774 0.067585915 0.099210896 0.22578417 -0.08385589
-0.020928496 -0.06908372 -0.0505077 -0.16100647 0.25316042 0.18704627 -0.24798967 0.37818378
-0.022756513 0.21209624 -0.16289122 -0.16716222 -0.0431127 0.05448873 0.035104834 -0.17848967
-0.10771459 -0.053803176 0.01930391 -0.030489178 -0.3109891 0.13163552 0.0646775 -0.095967956
0.17310183 -0.16138904 -0.0031436118 -0.14162473 0.2782217 0.17615731 -0.16003023 -0.00553717
0.0039477507 0.12876809 -0.35904962 0.07503567 -0.15087472 0.008176614 -0.36417717 -0.06059627
0.027687533 0.04171777 -0.024127252 0.07866818 -0.26534948 -0.09205366 0.1069409 -0.069892675
0.022341454 0.05007997 -0.029427601 -0.09326428 0.043958437 0.26588026 -0.16265327 0.049019333
-0.067174524 0.4090814 0.032734998 -0.14713448 -0.006485203 0.016188592 -0.022952938 0.18896772
-0.018449524 0.043235634 -0.1158918 -0.13504058 -0.1598283 0.14993781 0.13123657 0.024658132
-0.09852107 0.21742353 -0.12687162 0.15962556 -0.16770387 0.14350034 -0.04658076 0.14948474
0.09325376 -0.23463196 0.015722273 0.002363301 -0.072310574 -0.080758825 0.061159533 0.14172672
-0.060766008 0.020832319 -0.15664162 0.21542205 0.20585597 0.15734804 0.019347157 -0.041639596
-0.012722705 0.15997949 0.04717235 0.07783519 -0.1549331 0.13491099 -0.06348395 -0.116158165
0.08250931 -0.013309668 -0.018645085 0.09710691 0.08676826 0.0763385 -0.28028065 -0.19647269
-0.39052564 -0.3038186 -0.18062267 -0.12877542 -0.24316114 -0.040921018 -0.07106046 -0.03938381

linear_layer_stack.3.bias f4 [128]
00000000: 8b31 fabd 3829 733e b848 753c 7fb7 093e
00000010: 0ffc fb3d 2429 573e d879 40be 74b3 0a3e
00000020: 55d3 d73d 86c9 0d3e da64 24be 277b 72be
00000030: 646c 7cbe b61e 463e 6698 793b 8604 43be
00000040: 94ae 693e ef2b 3cbd b062 7a3d 5376 833d
00000050: 21d5 9abe a43b 8a3d f796 733e 742b b83e
00000060: 8f9b 853e 12a0 b03e 5a55 a13c 0783 cb3d
00000070: 712b f8bd 6c2c 2fbe ab5c a93c 44d8 c7bd
00000080: e316 cbbe 938d cabd 9233 9f38 e1af 163e
00000090: 796b 2e3e 77f4 cbbd 12a8 cf3d 21c6 3a3e
000000a0: bc00 02be 254a b33d aaa9 2d3d 6bbf 9b3e
000000b0: 9b24 cc3c d3e5 00be a72e 6fbe e235 653e
000000c0: 8fa1 323d 3f11 453e 814c 0b3c f76d 2e3e
000000d0: 8bd3 853e 2792 9b3e 02ca bbbd 283a b83e
000000e0: 21ec 7f3d d73c 0c3e c7d3 1c3e a432 1b3e
000000f0: 56a4 ae3d 161b a23e d244 6d3e 2c3e 8d3d
00000100: 6193 f23d 2163 5d3d 4363 b73d 9837 46bd
00000110: c5e8 c83c 5933 7dbe e524 e8bd eeb2 543d
00000120: 4846 963d 4fb0 8cbe b45e 98bd b889 123e
00000130: 15c4 87be 7cf6 20bd ffa8 643e 1ee6 873e
00000140: 95c2 e33d 752f 18bd 6d74 733e ad32 183c
00000150: 3d6e 14bd ecfd 413e 8d7a 803e 8f1c 303e
00000160: cd41 453d b77e b93e 6d95 723e 3e07 ffbd
00000170: d230 38be fe73 363e e4ed 243e 1165 82be
00000180: 3c47 8fbe 0799 78be b2cb 513e e20b 70be
00000190: dd1c 943e 4303 233d 06ba 663e ab8b b13d
000001a0: cd91 c63a e937 77bd def7 ae3d a609 c6bd
000001b0: 4b81 8f3e bd93 e13d f379 a3be 938f b5bc
000001c0: 581b 1d3d 5e78 b6bb f18c 5a3e 0ec9 71bd
000001d0: 6714 65be c89c 86bc b5b1 65be 648c d8bc
000001e0: 5512 0dbe b40b b0ba abdb 013e 84af 4d3e
000001f0: fad9 113e 2d11 113e d6e6 51be 262e f3bd
-0.12216481 0.23746192 0.014970951 0.13448904 0.12303936 0.21011788 -0.1879648 0.13545018
0.10538355 0.13846406 -0.16054097 -0.23679791 -0.24650723 0.19347653 0.0038085221 -0.19044694
0.22820503 -0.045940336 0.061129272 0.06419053 -0.3024073 0.06749657 0.23788057 0.35970652
0.26095244 0.34497124 0.01969402 0.09937101 -0.12117661 -0.1710679 0.02067407 -0.09758046
-0.396659 -0.098902844 7.5913165e-05 0.1471553 0.17033185 -0.09958737 0.10139479 0.18239643
-0.12695593 0.08754376 0.042398132 0.30419478 0.024919799 -0.12587671 -0.2335764 0.22383836
0.043611106 0.1924486 0.008502127 0.17034136 0.26137957 0.30384943 -0.09169389 0.3598187
0.06248105 0.13695084 0.15315162 0.15156037 0.08527438 0.3166129 0.23170784 0.06896624
0.118445165 0.054049615 0.089544795 -0.048392862 0.024525056 -0.24726619 -0.11335162 0.051928453
0.07337624 -0.27478263 -0.07439938 0.14310348 -0.26516786 -0.039297566 0.22330092 0.26542753
0.11121098 -0.037154634 0.23774882 0.009289426 -0.036237944 0.1894452 0.250935 0.17198394
0.048158456 0.36229488 0.23689814 -0.12452553 -0.17987373 0.17817685 0.16106373 -0.25467733
-0.27984035 -0.24277125 0.2048786 -0.23442033 0.2892827 0.039798032 0.225319 0.08669218
0.0015149653 -0.060356054 0.08543371 -0.09669809 0.2802833 0.11014507 -0.31928977 -0.022163188
0.038356155 -0.005568548 0.21342827 -0.05902963 -0.22371064 -0.016432181 -0.22431071 -0.026434131
-0.13776524 -0.0013431222 0.12681453 0.20086485 0.14243308 0.14166708 -0.20498213 -0.118740365

linear_layer_stack.6.weight f4 [10, 128]
00000000: 44be e53d a746 173e 0090 fbbd ea6f fbbe
00000010: a5c1 ecbe 0f8c d4be ebff cfbc 8adb e53d
00000020: 9c7f 4f3d f789 cbbd 98ea acbd 4a5c 533d
00000030: 133f 5c3d 91c8 23be a24e 92bd 1240 473e
00000040: 0f7d 8cbe 7aa9 8c3d d151 0bbf 5930 883c
00000050: 0f49 b93e 1c6b e4be 9b7e abbe 091e 8e3d
00000060: 4d7a 10bf 1342 30be 28f7 363e bd84 cebe
00000070: ac5c f9be 27df 8e3b 709f b9bc afb7 5b3e
00000080: 2f03 0fbf 6e80 793d 0036 683e 1875 d2bb
00000090: cdef a73d a85e d9bd 826a 0e3e 45ef b8be
000000a0: 2f31 363e 47ab 43be 17fb 0c3e 3c3f 27be
000000b0: 7efc f2be 4d1f c1be d32e 8cbe d2b5 f0be
000000c0: 60c2 513d 553e 8cbe 3cd5 943e 9e6c 393d
000000d0: 00d2 013e f579 b33d 5af2 733e 5727 bc3d
000000e0: 5176 b0be f631 5e3d 4add 25be 7e2c f53d
000000f0: a57e 2a3e 1363 f9be 30fc 883d 8f1b e0bd
00000100: cacd a5bd 6427 09be d3e3 e8be 0352 4fbe
00000110: 5c2c 513e 6d69 82be f5f7 c73d 32b2 84be
00000120: 8e13 243d 4f93 26be 0ee9 3a3e 6918 aebe
00000130: 141f 2e3e 6c19 68be 4766 f5bd b438 e83d
00000140: a71a 01bf 8712 b83d 14a3 493d 16be 5c3d
00000150: 029f 5b3e 3af9 11bc c215 c3be bf83 be3d
00000160: afc1 d73d 065a 15bf d1a3 8c3d b0e6 9c3d
00000170: d11d 843e c248 8a3d c2c4 243e 82c0 613e
00000180: 5027 22bd 9541 82be 75ad dcbe dda9 d33d
00000190: 8003 c33d ebb7 0a3e f14c 5f3c 3c71 033e
000001a0: 97fa b93d 0a8b 15bf 773b 5fbe f7dd 153e
000001b0: ebe3 c73d 20d7 cf3d a9c6 81bd 98d6 02bf
000001c0: c3cf 0b3e e5cd 1e3e db23 da3d aade 1d3e
000001d0: 513b d33e 80a1 bcb6 f411 7f3c 5e84 7d3d
000001e0: be40 92be 4109 0b3e 5916 a5be 0ba1 d0bd
000001f0: a93a e8bd 2ef2 9bbe dbcc 113e 0a5e d53d
00000200: 833c 82be 863d 9c3e d367 5fbe e5a4 41be
00000210: 7837 6ebe 745b a0be dc1b 013e bd09 c4bd
00000220: dd53 67be 3da4 ea3d 6cb4 9abd afae d03d
00000230: b4eb fb3d ff4a 3d3d ab44 463e f31a 6fbd
00000240: 2b96 863e 9a7c 2cbe 6e8c abbd 62a3 333e
00000250: 2635 4ebd eafe 64be 6605 c9be 07cd 81be
00000260: 3367 21be 8f35 a9be fc58 5cbe b570 43be
00000270: 313d 003e 355f 233e c82e 473e 09f1 fe3d
00000280: 2d81 603e e254 df3d 3eb6 293e 52b6 4cbe
00000290: e51c 62be 66ee 7ebd 78cd b7bd 1891 813d
000002a0: 477a 5d3e 8d54 eabc 3c10 b3be c896 053e
000002b0: 46cd 023e 033e 563d e338 103e dd74 50be
000002c0: cc52 e3bd 9372 1b3e 4f86 1fbc b3a9 d1bc
000002d0: 46d7 833d 50f5 f2be bd44 1fbe 495e 74be
000002e0: 6f4d c5bd c0bd 5bbe 8eac f13d ba60 673d
000002f0: 61b2 dc3d 83b0 07bf e9bb 39be 5f09 7d3e
00000300: a70b c5be b65c ecbd 9c48 bf3d c328 2b3e
00000310: e487 c03d d2a5 1f3e 101c 613d b591 3f3d
00000320: cc8a 8d3d 2ca4 13bc d562 2abe 0aec 8ebe
00000330: 1c2a 823d 8619 923c bb17 b13d e91d 6cbe
00000340: 8eaf fa3d 1936 73be a51f 32be 5fa0 25be
00000350: 6163 023e c263 583d 8a59 86be 5976 eabe
00000360: cbd8 7cbc e384 ad3d 7c4d d6be e782 523e
00000370: 73b3 363e af32 8cbe 07ee de3d cda0 bcbd
00000380: c4df ae3d aa0e 06be 2d5b 5e3e e97e c3bd
00000390: 60b3 d2bd d243 6f3d b661 47be fc7d 0b3c
000003a0: 05c2 9dbe f3c4 e1bd 267d 28bd 1de2 023e
000003b0: 10a4 2dbe ca07 83be 1cb4 873d 7841 e33d
000003c0: 4a7e ecbc 363c d5be 96c8 a33d 3856 233e
000003d0: 0514 dbbd 4243 c0bd 22cc c1bd 6d76 d53c
000003e0: 4bac bdbe a7ac 8fbe eb0b b6be b5e6 013a
000003f0: bf26 be3c eca6 4dbe 9aaa 92bd 1ff7 073e
0.11217931 0.14773045 -0.12283325 -0.4910882 -0.4624149 -0.41513106 -0.025390586 0.112235144
0.050658807 -0.09938424 -0.08443183 0.051601686 0.05377109 -0.15994479 -0.07143904 0.19458035
-0.27439162 0.068682626 -0.54421717 0.016624616 0.36188552 -0.44612968 -0.3349503 0.069393225
-0.56436616 -0.17212705 0.1786772 -0.40335646 -0.48703516 0.004360098 -0.022659034 0.21456788
-0.5586423 0.060913496 0.2267685 -0.00642265 0.08200035 -0.10613757 0.13907817 -0.36120048
0.177922 -0.19108306 0.13767658 -0.16332716 -0.4745826 -0.37719193 -0.27379474 -0.47013718
0.05121076 -0.27391306 0.29068935 0.0452696 0.12677765 0.08763496 0.23822919 0.09187191
-0.34465268 0.054246865 -0.16197696 0.11971377 0.16649874 -0.487084 0.06688726 -0.109427564
-0.08095892 -0.13393933 -0.45486316 -0.20246129 0.20427078 -0.25471058 0.09764091 -0.25917202
0.04005771 -0.16267131 0.18252966 -0.34002998 0.17004043 -0.22665948 -0.119823985 0.1133894
-0.50431293 0.08987909 0.04922779 0.053892218 0.21447375 -0.008909518 -0.38102537 0.09302472
0.10534989 -0.5834049 0.06867183 0.07661188 0.25803998 0.06752159 0.16090682 0.22046092
-0.039588273 -0.2544066 -0.43101087 0.10335133 0.09522152 0.13546722 0.013629184 0.12836164
0.09080999 -0.5841528 -0.21800028 0.14635454 0.09760269 0.10148454 -0.063367195 -0.51108694
0.13653474 0.1550823 0.1065137 0.15416971 0.41256192 -5.6216377e-06 0.015568245 0.061893813
-0.2856502 0.13577749 -0.32243612 -0.101869665 -0.113393135 -0.30458206 0.14238302 0.10418327
-0.25436792 0.3051569 -0.2181695 -0.18910559 -0.23263347 -0.31319773 0.12608284 -0.0957217
-0.22590585 0.11457107 -0.07553944 0.10189568 0.12300816 0.0462141 0.19362132 -0.05837531
0.26286444 -0.16844407 -0.08376394 0.17542794 -0.050343655 -0.22362867 -0.3926193 -0.25351736
-0.15762024 -0.33048674 -0.2151832 -0.19085963 0.12523343 0.15954287 0.1945144 0.124483176
0.21924277 0.10904862 0.16573426 -0.19991425 -0.22081335 -0.062239073 -0.08974737 0.063265026
0.21628676 -0.02860477 -0.34973323 0.130458 0.12773618 0.052305233 0.140842 -0.2035708
-0.110997766 0.15180425 -0.0097366115 -0.025593614 0.064375445 -0.47452784 -0.15553565 -0.23864092
-0.0963391 -0.21459103 0.1180049 0.05648873 0.107762106 -0.5300371 -0.18138088 0.24710606
-0.38485453 -0.11541121 0.09340021 0.16714768 0.09400919 0.15590599 0.054958403 0.046769816
0.06911239 -0.00901131 -0.16639264 -0.2791446 0.06355688 0.017834436 0.08647104 -0.23058285
0.12240516 -0.23751105 -0.17394884 -0.16174458 0.12733223 0.05282951 -0.26240188 -0.45793417
-0.015432547 0.08472612 -0.4185599 0.20557748 0.17841892 -0.2738242 0.10885244 -0.09210358
0.08538774 -0.13091531 0.21714468 -0.095456906 -0.10288119 0.058414288 -0.19470868 0.008513924
-0.30812088 -0.11023893 -0.041134976 0.12781568 -0.16957116 -0.2559188 0.0662615 0.110964715
-0.028868813 -0.416475 0.07997243 0.15950859 -0.10697178 -0.093878284 -0.09462763 0.026057446
-0.37045512 -0.2806141 -0.35555968 0.00049553375 0.023211835 -0.20083207 -0.07161446 0.13277863

linear_layer_stack.6.bias f4 [10]
00000000: eb20 56bd 1c98 49be e278 8a3e cf3a 903e
00000010: 69ef 39be 63c9 d1bb 66d3 32be 0570 17be
00000020: 35f7 a63d 03e9 8c3d
-0.052277487 -0.19686931 0.2704535 0.28169867 -0.18157734 -0.006402181 -0.17463455 -0.14788826
0.0815262 0.06880381
