labos/actual_model_fast.pth (torch, 196647 bytes, 6 tensors)

linear_layer_stack.0.weight f4 [256, 55]
000000 ab 47 c7 3e bd 06 b3 3d 16 46 e2 bc 90 ba e3 3e
       0.38921866 0.087415196 -0.02762131 0.44478273
000010 ef 37 48 be 19 76 21 3d be 9e 0a be 7d 92 74 3d
       -0.19552587 0.039419267 -0.13537118 0.059710015
000020 51 05 6a 3d 58 0f e4 bd e6 94 67 3d ad 08 4b bc
       0.057133976 -0.11135739 0.056538485 -0.012392205
000030 f5 53 50 3f 35 43 d6 bd 95 1e 34 bc ea ec b8 bc
       0.8137811 -0.104620375 -0.010993619 -0.022573907
000040 9a b8 3d bd fc 79 74 be 27 9a db bd 29 af d7 bb
       -0.046318628 -0.23874658 -0.107227616 -0.00658216
000050 62 eb 9e be 98 aa 2c be cb e9 4f bd 87 65 1d 3e
       -0.31038958 -0.16861951 -0.05076007 0.15370761
000060 25 0a f7 bd 1a 14 5f 3c 9e 13 39 be a1 62 0c be
       -0.12062482 0.013615632 -0.1807389 -0.13709499
000070 d0 2d 87 3b 62 c8 b3 be 31 14 1e 3e 4e 8c d5 be
       0.0041253343 -0.35113817 0.1543739 -0.41708606
000080 58 9f 52 3e cb be 91 3e cc 87 e4 3c 60 f8 7d 3c
       0.20568597 0.28465876 0.027896784 0.015501112
000090 48 f0 fb 3a 87 2b 4f 3e c4 4c b2 3c ef 3d 66 be
       0.001922139 0.20231448 0.02176512 -0.22484563
0000a0 e9 a4 bd 3d 67 d6 6a 3e 58 22 59 3e 1f a7 91 3c
       0.0925997 0.2293335 0.21204507 0.017779885
0000b0 1a 18 45 3c 7b a6 84 be 07 e0 48 3d 8e 4d 3a 3e
       0.012029672 -0.25908265 0.049041774 0.18193647
0000c0 bc 72 80 3d 78 73 f1 bd 80 8f 3e 3d c5 fa 80 bc
       0.06271884 -0.11789602 0.04652357 -0.015744576
0000d0 d5 5f 60 bc 08 7a f8 bd fb d1 28 3e c5 9a 14 3e
       -0.013694723 -0.121326506 0.16486351 0.14512165
0000e0 3b 82 da 3d db c1 34 3e b0 4b 9c 3e 81 ab 21 be
       0.10669371 0.17652075 0.30526495 -0.1578808
0000f0 61 9c 46 be d4 3a e1 bd f5 1b f4 3c c0 fd 88 bd
       -0.19395591 -0.10997549 0.029798487 -0.06689024
000100 27 31 37 3d ce 9b c6 bd 31 75 2d 3e 0c ee 72 3c
       0.04472461 -0.09697686 0.16939236 0.014827263
000110 aa 2d e5 bc 49 09 84 be b0 71 ee 3d d2 06 5d 3e
       -0.027975876 -0.25788334 0.11642778 0.21584633
000120 e3 55 df 3d b4 44 07 be db 89 8b bd 12 53 07 be
       0.109050535 -0.13209802 -0.06813403 -0.13215283
000130 0f b7 6b 3e 11 5d 23 3d cb 6c 62 3e b9 f6 24 3d
       0.2301905 0.039883677 0.22111814 0.040274356
000140 53 6a 6c be 96 9b a7 bd 93 d5 7d 3e 49 ea 79 be
       -0.23087434 -0.081839725 0.24788503 -0.24405779
000150 f0 8f 5b 3e 2b 4f 4e bc 48 6b 59 3e cf 14 b7 bd
       0.21441627 -0.012592117 0.21232331 -0.08939516
000160 ce 9e 2b bd f2 f5 f6 bc 9b 95 9c 3e cc 12 ab bd
       -0.041899495 -0.030146573 0.3058289 -0.083531946
000170 4f b2 b2 3e b4 69 c7 bc 95 6a 93 be 05 e6 9d 3d
       0.34901664 -0.024342395 -0.28792253 0.07709888
000180 07 62 ac 3e df f6 ca 3c be b6 3b be 4a 60 d8 3d
       0.3366854 0.02477592 -0.1833143 0.10565241
000190 19 46 ff 3d 32 2b 33 3d 36 24 0e bb 76 e7 9f bd
       0.12464542 0.043742366 -0.0021689064 -0.078078195
0001a0 71 1e fd bd cd 60 59 bd d3 d3 7b be 0a 17 0b bc
       -0.12359322 -0.053070832 -0.24592523 -0.00848938
0001b0 8f 0b 38 3e 63 d5 82 3c d3 56 f8 3d 1c 43 a6 bd
       0.17973159 0.015970891 0.121259354 -0.08118269
0001c0 19 1c 60 3e b1 7a e0 bd d2 89 0c be 48 4c 3e be
       0.21885718 -0.109609015 -0.1372445 -0.18583786
0001d0 98 d5 b5 bd d4 40 12 be 8b ab 48 be 6b d7 e8 bd
       -0.088786304 -0.14282542 -0.19596688 -0.11369213
0001e0 22 a9 80 3d e0 f0 8e 3d 04 2c 04 be fe 92 67 bd
       0.062822595 0.06979537 -0.12907416 -0.056536667
0001f0 e1 c0 28 bf 24 d1 8d 3d 41 76 6b bd ca 3b 76 3d
       -0.6591931 0.06924656 -0.057485823 0.060115613
000200 9c 01 6c 3e 38 c4 af 3d 58 8e 1c 3e a6 39 1f bc
       0.23047489 0.08582348 0.15288675 -0.009718334
000210 27 e2 55 be a1 69 d8 3e 4f 4f 42 3e 73 87 04 be
       -0.20887052 0.42268088 0.18975566 -0.12942295
000220 92 b1 29 be 72 d7 06 bf 39 ec c8 3c 33 7f 68 bc
       -0.16571644 -0.52672493 0.024526702 -0.014190483
000230 3c 58 4c 3b f7 f5 d1 be 1e df 0d 3e 73 8c ab bd
       0.0031180521 -0.4100797 0.13854644 -0.08376398
000240 61 a9 54 bc e7 d0 be 3e ef 7a fc bd c5 b9 66 3d
       -0.012979836 0.37268755 -0.12328135 0.056329507
000250 6f 68 f1 3d cd be 8f bd 3b 26 e8 3d e0 94 67 bd
       0.11787497 -0.07018814 0.11335417 -0.056538463
000260 69 a3 2c be 30 0b 0e bd 64 2d 8e 3c 70 8a 49 be
       -0.16859211 -0.034678638 0.017355628 -0.19681716
000270 27 e6 7b 3e 18 bd fc bd 87 cd ec bd 19 88 61 be
       0.24599515 -0.12340754 -0.11562639 -0.22024573
000280 5e 56 9c be 6f 74 79 3e 13 e0 78 3e 9c 88 9c be
       -0.30534643 0.24360822 0.24304228 -0.30572975
000290 65 ae 7a 3e 32 ae 9a be 6f 6d 89 be 8e 9f 7c 3e
       0.24480589 -0.30211025 -0.26841304 0.2467024
0002a0 da a1 6d 3e 5a 18 3e be dd 44 a8 be c4 cd 90 3c
       0.23206273 -0.18563977 -0.3286504 0.017676242
0002b0 7f 6e 81 3e 04 f2 b8 bd bc 04 68 be f0 5e 7e bd
       0.25279614 -0.09030536 -0.22658056 -0.06210226
0002c0 d7 8c 4f 3d 84 47 83 bd 0c 1c 52 3d ba 67 63 3d
       0.050671425 -0.06410125 0.05129628 0.055518843
0002d0 0d 56 46 3e a0 5b cb bd 6d a3 74 bd 48 95 14 be
       0.19368763 -0.099295855 -0.059726167 -0.14510071
0002e0 8c 8a 86 3e d9 8e 5e 3e e9 33 f0 3e 25 8f 0d bd
       0.26277578 0.2173418 0.46914604 -0.03456034
0002f0 27 82 90 3d 7d d8 87 3d a2 9b d1 3b c1 99 09 3e
       0.070560746 0.06633089 0.0063967267 0.13437559
000300 82 a3 9a 3e 1f 3e ab 3e d7 44 59 be db 82 91 3d
       0.30202872 0.33445832 -0.21217667 0.07105037
000310 46 68 9f bd 79 5b eb bc 01 fc 47 3e 62 cb af bb
       -0.077835605 -0.028730141 0.19529726 -0.0053648213
000320 7a ff fe bd dd 6a 72 be fe dd 5b 3e d4 5f 16 3e
       -0.12451072 -0.23673578 0.21471402 0.14684993
000330 cd 36 14 bd 52 10 71 3c 92 23 52 3d b8 d8 7a 3d
       -0.036185075 0.014713364 0.051303454 0.061241835
000340 ad 1a e7 3c 37 86 93 3e c3 d2 c4 3e 1a 26 6a 3c
       0.028210962 0.28813335 0.38442048 0.014291311
000350 f8 6c 87 be 8e 10 9a bd 09 4c ca 3d d9 30 16 3e
       -0.26450324 -0.07522689 0.09877784 0.14667071
000360 51 69 c0 bb d2 9f 21 3d 0c 04 18 3e 1b 23 92 3d
       -0.0058719297 0.039459057 0.14845294 0.07135602
000370 f8 1f 4d be 17 84 02 bd b0 f8 f8 3d 44 f1 cc 3d
       -0.20031726 -0.031864252 0.121568084 0.10006955
000380 e3 8f 40 be df 61 6e be 3f 75 49 3e b7 08 08 be
       -0.18804888 -0.23279522 0.19673632 -0.13284574
000390 3f 4a 2a be ac 53 c6 bd 32 a0 1a 3e 3e fe 2a 3e
       -0.16629885 -0.09683928 0.15100172 0.16698548
0003a0 bb 7d 0b be 47 84 20 3e d6 5f e3 3e d8 fb cd bc
       -0.13622181 0.1567546 0.44409055 -0.025144503
0003b0 9a 99 21 3e 73 3c cd bd 9e 17 94 bd 06 a9 f5 bd
       0.1578125 -0.100212954 -0.07231067 -0.11995129
0003c0 39 02 85 3e e2 1e 45 be c9 05 91 bb 00 d2 81 be
       0.25978258 -0.19250062 -0.0044257385 -0.2535553
0003d0 a2 7c 8b bd 8a d3 a9 3e 8d d6 99 be ea db 56 be
       -0.06810881 0.33169204 -0.30046502 -0.20982328
0003e0 4d d4 21 bd 77 ee 4d 3e 60 68 58 be 64 7f a0 3c
       -0.039509106 0.20110498 -0.21133566 0.019591995
0003f0 88 c9 59 3e 43 e6 e1 be 69 c8 01 3e 6a ed db be
       0.21268284 -0.44120988 0.12674107 -0.4295457

linear_layer_stack.0.bias f4 [256]
000000 d0 41 20 3d be f0 e9 be dd b7 f9 be 2b da 9e be
       0.039125264 -0.45691484 -0.4877309 -0.31025824
000010 26 57 13 bf 3c b9 61 be 35 77 2a be 37 47 bb bc
       -0.5755485 -0.22043318 -0.16647036 -0.022861106
000020 4d e1 6a 3d 96 37 1f bf 47 d3 81 be 35 2e cb be
       0.05734377 -0.6219419 -0.25356504 -0.3968369
000030 65 5e 1c be 9a 4d 6a 3e b5 fc 0b bf c3 83 fc be
       -0.15270384 0.22881165 -0.54682475 -0.49319276
000040 d7 ca 04 be 9a 51 ac be 61 1e ee bc ce c5 ba bd
       -0.12968002 -0.33656007 -0.02906722 -0.091197595
000050 32 3b 0e 3e 7f 50 b1 be e0 fe 67 bd 8c c8 ac be
       0.13889769 -0.34631726 -0.056639552 -0.33746755
000060 b3 36 b3 be 05 96 d6 bd 5a 81 57 be d0 1b 87 bd
       -0.3500267 -0.10477833 -0.21045437 -0.06597102
000070 53 6c dc be d0 7c 07 bf 58 46 a0 be 73 6a 11 bf
       -0.43051395 -0.52924824 -0.31303668 -0.56803054
000080 cf 1b 1c be 41 d2 b4 be b2 a3 d8 be 15 a3 e8 be
       -0.15244983 -0.3531666 -0.4231239 -0.45436922
000090 9b 70 fc be 8f da ae be 7e 7d c4 be 39 70 73 be
       -0.4930466 -0.34151122 -0.38376993 -0.23773278
0000a0 61 4f 94 bd f5 f6 19 be 17 fc 0e bf d6 96 2a be
       -0.07241703 -0.15035613 -0.5585341 -0.16659102
0000b0 10 b9 cc be d5 eb 41 be ca 04 c8 be 44 56 0c bf
       -0.3998494 -0.18937619 -0.39066154 -0.5481913
0000c0 8a 13 3f be 13 6f b1 be c7 10 dc be 03 b6 5c be
       -0.18659797 -0.34655055 -0.4298155 -0.21553807
0000d0 5c 01 8d be 52 94 c4 be 5c d3 a0 be db f3 8b bc
       -0.275401 -0.3839441 -0.31411254 -0.017084053
0000e0 72 8d 90 be a8 b9 03 bd 9e 05 0b be bf 5f a6 be
       -0.28232914 -0.032159477 -0.13576362 -0.32494923
0000f0 56 21 3f be 38 ec dd be 84 c9 32 be 63 43 28 3e
       -0.1866506 -0.43344283 -0.17459685 0.16431956
000100 bb f9 aa 3d c7 b5 10 bf 15 a9 db be f4 db b4 be
       0.083484136 -0.5652737 -0.42902437 -0.3532406
000110 14 04 e2 bc bb 72 27 bd 38 8e a4 bc 5c 3d b4 bd
       -0.027589835 -0.0408809 -0.020087346 -0.08800766
000120 e9 ed 3b bb 3b 98 8c bd 47 d9 ea be 55 8f bb bd
       -0.002867574 -0.06864973 -0.45868894 -0.09158198
000130 7e 39 b0 be eb 6f 4b be 6f c8 5a be 02 f6 c0 be
       -0.34418863 -0.19866912 -0.21365522 -0.3768769
000140 5c 9a 4b be 1b 92 81 be 2a 09 90 3d 61 d9 85 be
       -0.19883102 -0.25306782 0.07032998 -0.2614241
000150 23 65 1e be 1a 08 9e be 5b 01 a1 3c fd 95 43 be
       -0.15468268 -0.30865556 0.019653967 -0.19100185
000160 6e 4e 67 be d2 a0 0a bf 67 b8 02 bf e0 69 07 bf
       -0.22588512 -0.5415164 -0.51062626 -0.5289593
000170 48 b0 ef bd ac 3c 9d be 6f 13 83 be 80 64 b8 be
       -0.11703545 -0.3071035 -0.25600764 -0.36014175
000180 01 d7 36 be a4 bc 81 be 93 cb b1 3d c4 e5 0a bf
       -0.17855455 -0.25339234 0.08681407 -0.54256845
000190 0c 7b 30 be 09 c7 c6 be c5 7f be be 1f fa 50 be
       -0.17234439 -0.38823727 -0.37206855 -0.20407914
0001a0 e0 03 f3 be 37 87 90 be f7 4c d6 be 44 7f d2 bd
       -0.47463894 -0.2822816 -0.41855595 -0.1027818
0001b0 30 00 a5 be ca 15 d2 bd b6 f0 37 bc 6e ae 9c be
       -0.32226706 -0.10258062 -0.011226824 -0.3060183
0001c0 dd ad 4a be aa 6d 9f 3d 87 18 f2 be 1d 97 19 be
       -0.19792886 0.07784589 -0.47284338 -0.14999051
0001d0 55 c9 1c be 30 21 80 be cc ca 94 be aa 8d 79 bd
       -0.15311177 -0.2502532 -0.29060972 -0.060926117
0001e0 97 fe db be 53 ff b6 be 1e 6c 9c be ae 7b 96 be
       -0.42967674 -0.35741672 -0.30551237 -0.29391235
0001f0 fe c6 b4 be 48 92 b4 be 4d 76 ca be b4 e1 58 be
       -0.3530807 -0.35267854 -0.3954338 -0.21179849
000200 45 c1 0a be 9e 04 06 bf c1 a4 04 bf 6d 5d e7 be
       -0.13550289 -0.52350795 -0.51813895 -0.45188466
000210 0d d2 ac be 03 4d 03 bf 1c cc 88 be 0d 5a 18 bf
       -0.33754006 -0.51289386 -0.26718223 -0.59512407
000220 e7 06 17 bf 95 0d b7 be 6e b4 95 be 51 b8 89 be
       -0.5899491 -0.3575255 -0.2923922 -0.26898435
000230 f2 dd 6c be 5d 1f d3 be d3 84 ef be 44 13 1b be
       -0.2313154 -0.41234866 -0.46781024 -0.15144068
000240 2e f1 80 be 3a 8c e8 be 33 9d 30 be 1e 76 ca bd
       -0.25184005 -0.45419484 -0.17247467 -0.0988581
000250 45 62 dc be 05 ce bf bc 27 98 b8 bd fe 13 ce be
       -0.43043724 -0.023413667 -0.09013396 -0.40249628
000260 d8 d8 d6 3d 5d 14 c1 be 6b ef 36 be 45 b4 42 be
       0.104905784 -0.37710848 -0.17864768 -0.1901408
000270 1a 65 9d be 85 63 a8 be 6d 92 62 be 0a 5a 37 3e
       -0.30741197 -0.32888427 -0.2212617 0.17905441
000280 2a ae a7 be 99 69 2b be a0 d5 dc be 46 2f a2 bc
       -0.32750064 -0.16739501 -0.43131733 -0.019797932
000290 76 d2 86 bd 2b 63 7a bd 76 e6 3a bf 4e 2a d3 be
       -0.06583111 -0.06112973 -0.73007905 -0.41243213
0002a0 90 a0 76 3c 8b 6d f7 be 79 24 d2 be cb 51 31 bf
       0.0150529295 -0.48325762 -0.4104345 -0.6926543
0002b0 65 86 11 bf c1 a9 1e be 9e 6b 14 bf 21 66 3b be
       -0.56845695 -0.15494443 -0.5797671 -0.18300678
0002c0 c8 af 1a bf 2e 1a bd be 34 36 45 3e 3e 85 02 bf
       -0.6042447 -0.36934036 0.19258958 -0.5098456
0002d0 00 d2 85 be 7a 24 e9 be 2b 30 ba bd 7f 79 0f 3d
       -0.2613678 -0.45535642 -0.090912186 0.035027977
0002e0 3e d6 37 be cc 1d 53 3e 66 ac a3 be 74 fd 6a be
       -0.1795282 0.20616835 -0.31967467 -0.22948247
0002f0 fc 63 0e be d9 75 30 bf 80 46 2a bf b7 3c a3 bd
       -0.13905329 -0.6892982 -0.66513824 -0.07970565
000300 b9 6b 40 bd b8 c9 ce be 59 00 66 be 9c 1e 86 be
       -0.046977732 -0.40388274 -0.2246107 -0.26195228
000310 cb 6d 37 bf 9b 10 ac bd f1 82 37 be 8d 7d 73 be
       -0.71651906 -0.08401605 -0.17921044 -0.23778363
000320 cb 0e 9e be 6d b6 be be 04 76 65 be e8 34 3d be
       -0.3087066 -0.37248555 -0.224083 -0.18477213
000330 b2 e9 aa be 50 6e 17 bf 0f 5b 0f be ba c6 e3 bd
       -0.3338142 -0.591527 -0.1399958 -0.111218885
000340 fd a1 15 3e ef 54 5c be 04 52 2e be 44 dd 29 bf
       0.14612575 -0.21516775 -0.17023474 -0.6635325
000350 66 67 91 3e a3 de 27 bf c5 5f 15 bf 2c 23 ae be
       0.283992 -0.6557409 -0.5834926 -0.3401121
000360 e5 8a 0c bf 58 df 84 be 76 31 e4 be 5b 2a 5b be
       -0.54899436 -0.25951648 -0.44568986 -0.21402876
000370 59 26 87 be d3 36 c8 be b6 9d 8d be 77 27 b3 be
       -0.26396444 -0.39104328 -0.27659386 -0.34991047
000380 57 48 2a be 81 0f 31 be 7d 87 4c 3e f8 b3 04 bf
       -0.16629158 -0.1729107 0.1997356 -0.5183711
000390 cb 43 ab bd 97 1c ed be 0e 8a cb be 1d 0e df be
       -0.0836254 -0.46310875 -0.39753765 -0.43565455
0003a0 01 95 19 be ba 60 e8 be ec c6 f9 be b9 11 22 bf
       -0.14998247 -0.45386297 -0.48784578 -0.6330829
0003b0 8a 72 8b 3d 13 0a 9c be 30 a1 6a be e8 ba 74 be
       0.06808956 -0.30476436 -0.2291305 -0.23899424
0003c0 3d 7d 4d be a8 52 61 be 1c 30 b6 be 6c 85 f0 be
       -0.20067306 -0.22004187 -0.3558358 -0.46976793
0003d0 b1 22 b9 be 51 cd ad 3d 34 84 a5 be b6 3d a7 be
       -0.3615928 0.084864266 -0.32327425 -0.3266427
0003e0 b4 b1 98 be f5 c7 81 be 65 dc c5 be 31 57 6b be
       -0.29823077 -0.25347868 -0.3864471 -0.2298248
0003f0 37 3a f9 be 8a 62 8b be ca 90 e6 be 78 da 6c bd
       -0.48677227 -0.27223617 -0.4503234 -0.057825536

linear_layer_stack.3.weight f4 [128, 256]
000000 ba 1f 4a bc 33 df 77 3e 61 22 94 3d 90 f1 4a bb
       -0.012336666 0.24206237 0.0723312 -0.0030966736
000010 12 b7 11 3e fd 8d 37 bd 12 81 3a 3d 64 14 c5 3c
       0.14229992 -0.044813145 0.045533247 0.024057575
000020 d9 2d 76 3d f3 f4 65 be 18 42 da 3d ab 21 fa 3c
       0.060102317 -0.22456722 0.10657138 0.030533632
000030 d9 4e b1 3d 15 a0 00 3e af 88 0e 3e 17 39 3d 3e
       0.08657617 0.12561066 0.13919328 0.1847881
000040 ab 58 42 bc 9f c0 12 be dc 1d 9d bd d7 73 aa 3d
       -0.01186196 -0.14331292 -0.07671711 0.08322876
000050 f2 30 5f 3e e4 9a 7c 3e 6c 48 ec 3c c4 c1 f0 bd
       0.21796015 0.24668461 0.028843127 -0.11755708
000060 d0 14 2d 3e 11 a5 2b bc eb ec e0 3d ae ab 80 3d
       0.1690247 -0.010476367 0.109826885 0.06282745
000070 e6 7c 2b 3e 78 14 89 bd 7c 44 61 3d 26 03 1e bc
       0.16746864 -0.06693357 0.054996952 -0.009644305
000080 32 85 99 3d 63 a4 bc bd 99 26 30 3d 12 11 a7 be
       0.07496108 -0.09211042 0.04300556 -0.3263021
000090 cd f6 0e be 8c b4 32 bd 04 a9 fb bc 45 5e 06 be
       -0.13961335 -0.043629214 -0.030720241 -0.13121898
0000a0 b6 91 8a bd 3e b8 75 be a4 b6 8c 3d ac 50 cb bd
       -0.067660734 -0.23996064 0.068707734 -0.09927496
0000b0 05 22 09 bd be 38 19 bd 45 3a b5 bd b6 07 c8 3d
       -0.03347971 -0.03740763 -0.08849005 0.09767096
0000c0 a6 bb a4 bc 16 c8 2a 3d b0 7c ea 3d 34 6f 8e 3c
       -0.020109009 0.041694723 0.114495635 0.01738701
0000d0 65 35 e8 bd c5 7a c2 3b f6 b5 7f bb d7 c3 af 3b
       -0.11338309 0.0059350454 -0.003901837 0.005363922
0000e0 58 c5 35 bd f6 30 42 3e 85 62 8e 3d b4 c6 0c 3c
       -0.044377655 0.1896399 0.06952385 0.008592296
0000f0 2d 73 83 bd 13 00 11 3c c0 1f c6 3b f5 97 77 3e
       -0.064184524 0.008850115 0.0060462654 0.24179061
000100 5c 4f 76 3d c0 11 7a 3d 33 03 27 3e b5 32 0b 3e
       0.060134277 0.061052084 0.16309814 0.13593562
000110 97 31 5d be b2 fb a3 bd fe 2e 9c bd ba 84 26 bc
       -0.21600948 -0.080069914 -0.076261505 -0.01016348
000120 a6 57 ac 3c 45 4c b8 bd fe a8 24 3e 6f d0 08 3e
       0.021037888 -0.08998922 0.1608009 0.13360761
000130 37 b4 ab 3d ff 85 5a 3d 62 a4 3a be ea 9a 35 bd
       0.08383983 0.053350445 -0.1822677 -0.04433719
000140 62 a2 4f bd b9 8e c9 3c fc 38 a5 3d fd 72 c7 bc
       -0.05069197 0.024604188 0.080675095 -0.024346823
000150 28 fe ba 3d db f2 33 3e 81 14 82 3e ce 88 ad bc
       0.09130508 0.17573111 0.25406268 -0.021183398
000160 06 2c 12 be ba 66 a4 bc e4 d0 8f 3e 68 28 d9 3d
       -0.14274606 -0.020068515 0.28089058 0.1060341
000170 dd d4 bc 3c 0c 57 04 3e 1f 8b e2 bc 73 18 fe 3d
       0.02305072 0.12923831 -0.027654229 0.12407007
000180 2b 9e 85 3e 3f 42 4d 3d b5 4d 85 3d 87 b8 ba bd
       0.26097235 0.050112005 0.06508962 -0.09117227
000190 1a f6 91 3c 93 5e 97 3e 8c ae c6 3d 64 4a 87 bd
       0.017817546 0.29564342 0.09701261 -0.06605986
0001a0 23 f1 74 3d 05 f7 fd 3c cd e1 1f 3e 9e cf 2d 3e
       0.05980028 0.031001577 0.1561348 0.16973731
0001b0 24 68 da bc d9 a4 04 bc 60 5f 2b 3e e5 9f 16 3c
       -0.026660986 -0.008095943 0.16735601 0.009193395
0001c0 fb de 05 3d f3 df 3b 3e 24 f8 1f 3d 7d 9a d2 3d
       0.032683354 0.18347149 0.039055005 0.102833726
0001d0 6c 04 94 3e 28 2d 27 3e 20 1b d3 bc ad bd 85 bc
       0.28909624 0.1632582 -0.02576977 -0.016325796
0001e0 21 64 19 3d b2 e4 29 3e 8e e7 39 b9 d0 36 24 be
       0.037449006 0.16591147 -0.00017729236 -0.16036534
0001f0 63 c2 a0 be 11 20 bf bd 2f 2c 81 be 18 13 4f be
       -0.31398305 -0.09332288 -0.25229022 -0.20222127
000200 c1 96 26 3e cb e5 a1 3c af a5 36 3d eb 84 0c 3e
       0.16268446 0.019762894 0.044591602 0.13722579
000210 03 cb 8b 3c 9c 23 4a 3d 30 f6 64 3e 57 4a 73 bd
       0.017064577 0.049350366 0.22359538 -0.059397068
000220 48 fe 20 3e 04 a1 cd bd 48 9a 11 be 54 58 8d be
       0.15722 -0.10040477 -0.1421901 -0.27606452
000230 68 d5 83 3e ed 2e 20 3e 45 83 23 be cb a8 f9 3c
       0.25748754 0.15642901 -0.15968044 0.030475995
000240 df fc 76 3d 24 62 be bd 79 a9 6e bc 30 d4 08 3d
       0.06029975 -0.092960626 -0.014566773 0.033405483
000250 b4 63 f6 3d d5 bb 94 bd ba 10 f2 bc c3 97 65 be
       0.120307356 -0.072623886 -0.029548991 -0.22421174
000260 9c 27 16 3d 7e b4 7e 3d 45 bf 35 bd 51 16 f2 bd
       0.03665887 0.06218385 -0.044371862 -0.11820663
000270 95 f4 8d bd cb de 6e bc 84 96 6b 3e bc ae 8d 3c
       -0.06931416 -0.014579485 0.23006636 0.017295234
000280 2c a6 52 3d 12 84 2f bd 79 b0 f1 bd 57 a9 af 3e
       0.051428005 -0.04285056 -0.118012376 0.34308884
000290 d7 21 59 3d 15 73 8f bc 73 89 03 be 77 25 24 3d
       0.053010788 -0.01751093 -0.12845401 0.04007479
0002a0 1c 56 12 3e c0 9b ca 3d d1 85 c0 bd 24 44 a7 3d
       0.1429066 0.09892988 -0.094005235 0.08167294
0002b0 d5 39 da bd 71 6f 8f bd 72 16 dd be 35 5f c1 bd
       -0.10655562 -0.07003678 -0.43181187 -0.094419874
0002c0 7e 9b 89 3d 15 6c 80 bd 57 b4 a9 bc 74 11 a0 3d
       0.06719111 -0.06270615 -0.020715876 0.07815829
0002d0 4b a8 f3 3d 54 85 44 bd bc 8b 24 3d a5 de 40 bd
       0.11897334 -0.047978714 0.040172324 -0.04708733
0002e0 28 42 4f 3b 2d 3d 73 bc e5 64 cb 3d b2 3d d5 bc
       0.0031625126 -0.014846128 0.099313535 -0.026030395
0002f0 7d 29 3a 3e e7 5e 53 3e 28 86 bd bc 7e 04 85 bd
       0.18179889 0.20641671 -0.02313526 -0.064949974
000300 1d 5c 17 bd fe 76 7f 3e 69 27 af 3e 56 26 9c be
       -0.03695308 0.24947736 0.34209755 -0.30497998
000310 a6 65 3c 3c 2b 4b 6a ba 10 80 82 bc fc 6a 76 3d
       0.011498844 -0.00089375925 -0.015930206 0.060160622
000320 a1 5a de bc 22 4f bd bc 96 6f 67 3b ae c2 39 3e
       -0.027142825 -0.023109023 0.0035314313 0.1814067
000330 2d 7e 85 be 6a 26 db 3d 6c 14 9b 3c 49 49 59 bd
       -0.26072827 0.10700686 0.018930636 -0.053048406
000340 95 18 b7 bd b4 85 c8 3d ed 96 74 3d 0b f7 55 3e
       -0.089402355 0.09791127 0.059714247 0.2089502
000350 64 84 3f 3d e1 7c 97 bc 05 91 0a bf 3b e5 17 3e
       0.046757117 -0.018492164 -0.5412753 0.14833538
000360 5d 54 8f bd 85 b1 c9 3b fe 65 40 bd 3a 4a 58 3c
       -0.06998513 0.006155195 -0.046972267 0.013201291
000370 d3 fa 41 3e 82 f0 c7 bd 3e 3c d1 3d 5e 7d 6b 3d
       0.18943338 -0.0976267 0.102165684 0.057492606
000380 44 82 cf bd 38 b8 36 3d f5 53 27 bd 27 05 5a 3e
       -0.10132268 0.04460928 -0.040851552 0.21291028
000390 ca 61 69 3e ae 36 ac 3d 60 bd 01 be 8c ec fe bc
       0.2279121 0.08408867 -0.12669897 -0.031118654
0003a0 38 97 82 bd 6e 49 ea 3a 68 d0 e7 bc 10 ce f7 bd
       -0.06376499 0.0017874667 -0.028297618 -0.1209985
0003b0 ef 72 17 be a9 af 60 3e dc cc cc bd c6 80 bc bd
       -0.14789937 0.21942009 -0.10000011 -0.09204249
0003c0 29 24 d4 3d d9 96 8e bb f0 e1 81 be 28 0b 12 3e
       0.103584595 -0.0043514785 -0.2536769 0.14262068
0003d0 d4 54 d9 bd 38 db 25 3e 6b da 36 be f5 1b 2d be
       -0.10611883 0.16196907 -0.17856757 -0.16905196
0003e0 8f 5c 5a bd 33 b2 15 be d4 63 5d bd 50 36 94 bd
       -0.053310927 -0.14618759 -0.05405028 -0.07236922
0003f0 d9 aa 28 3e a7 35 b4 bd 47 03 65 be 2e e6 b7 bc
       0.16471423 -0.08799296 -0.22364531 -0.022448625

linear_layer_stack.3.bias f4 [128]
000000 ee 39 56 3d 94 1c 2d 3e 9e f4 85 3d 24 4b f7 3d
       0.05230134 0.16905433 0.06540798 0.12074879
000010 b0 88 6a 3e a5 b0 32 3e 4b e1 63 be 1a 38 39 3e
       0.22903705 0.17450197 -0.22253911 0.18087807
000020 f5 bd 0e bd c2 7f 8b 3d e8 e7 20 be d6 f8 04 be
       -0.034849126 0.06811477 -0.15713465 -0.12985548
000030 83 b4 32 be 3d f2 5e 3e e5 97 2c 3d dc 72 c7 bd
       -0.17451672 0.21772094 0.042137045 -0.097387046
000040 a9 43 b8 3e f1 43 be bd 5c 81 8c bb ca 88 35 3b
       0.3598912 -0.092903025 -0.004287882 0.002769994
000050 7a 11 ab be 82 fe b2 bd 5a 73 86 3e 59 8a 6b 3e
       -0.3341177 -0.0873995 0.2625988 0.23001994
000060 ba 38 4d 3e d1 38 9d 3e fb 19 1b 3e c5 71 2c 3d
       0.2004117 0.3070741 0.1514663 0.042100687
000070 d0 52 63 bd d3 6c 0c be 4e 73 0d ba 09 21 cc bd
       -0.055498898 -0.13713388 -0.0005395905 -0.099672385
000080 d2 4b 01 be 6d 2a ec bd ed 68 36 3c 63 17 8d 3d
       -0.1262658 -0.115315296 0.011133415 0.06889226
000090 97 1b 54 3e a4 80 60 be 16 81 5d 3e 56 09 4d 3e
       0.2071365 -0.21924073 0.21631274 0.20023093
0000a0 13 67 19 be 08 20 cd 3b fb 1c 9c 3d 12 b0 9b 3e
       -0.14980726 0.006259922 0.07622715 0.30407768
0000b0 c5 c7 89 3d 43 17 05 bc be 29 6d be fb e6 43 3e
       0.06727556 -0.008123222 -0.23160455 0.19131081
0000c0 80 f0 58 bd 19 75 4b 3e 04 2e 90 3c bc c0 1a 3e
       -0.052963734 0.19868888 0.017600067 0.15112585
0000d0 3d 39 66 3e cc bb 99 3e 72 08 5e be ef e3 b4 3e
       0.22482772 0.3002609 -0.21682909 0.3533015
0000e0 22 3e a6 3d 45 af 49 3e c9 c6 d1 3d 94 7b 13 3e
       0.0811732 0.19695766 0.102429934 0.1440261
0000f0 78 10 a7 3d 55 9d a9 3d 08 b8 fa 3d b4 c1 ce 3d
       0.08157438 0.08281962 0.122421324 0.1009554
000100 5e 87 12 3e 33 39 1f 3e 50 42 c4 bd 7a d9 b8 bc
       0.14309451 0.15549164 -0.095829606 -0.022564638
000110 b9 15 c9 bc 4a 95 86 be 82 17 e4 bd 0e 36 5b 3d
       -0.024546491 -0.26285774 -0.11137296 0.053518347
000120 f7 45 96 3d e7 2f f1 bd 92 53 f8 3b 5e 2e 0a 3e
       0.073375635 -0.11776715 0.0075783217 0.1349425
000130 9d ea 87 be 64 7f eb 3d d6 55 2a 3e fc 99 bc 3e
       -0.26546183 0.11498907 0.16634306 0.3683623
000140 11 1c 82 3e 13 69 c4 bc ea 34 75 3e 27 b6 fe bd
       0.25412038 -0.023975885 0.23945966 -0.124370866
000150 5e d0 34 3d af 90 ad 3e 9d b3 7c 3e 5c 22 36 3d
       0.044144027 0.33899447 0.24677892 0.04446636
000160 59 15 3e 3d ba b9 c6 3e f0 8d 13 3e 56 b4 4c be
       0.046407077 0.38813573 0.14409614 -0.19990668
000170 76 c5 2f be 76 14 45 3e 6c 28 88 3d 42 d0 55 be
       -0.17165169 0.19246086 0.06648335 -0.20880225
000180 42 c4 9e be 4d 7f 76 be c3 b0 e4 3d 51 fe 0e be
       -0.31009108 -0.24071999 0.11166527 -0.13964202
000190 16 5f a0 3e 86 8e 86 3d 73 b0 81 3e 04 df 0b 3e
       0.31322545 0.06570153 0.25329933 0.13659292
0001a0 ea 1b 57 bd 56 a5 c9 bc a6 43 17 3d e1 0f 24 be
       -0.052516855 -0.024614971 0.03692975 -0.16021682
0001b0 ae ad 59 3e 38 51 63 3e b1 64 c7 be 22 4b 3a bd
       0.2125766 0.22198951 -0.3894401 -0.04548181
0001c0 a7 f4 20 be ca e5 25 3d 47 99 60 3e 7a 7f 2d 3c
       -0.15718327 0.040502347 0.2193347 0.010589475
0001d0 82 3f 44 be ba e4 50 3d 64 7f 56 be 00 c9 b6 bd
       -0.19164851 0.05099938 -0.20947033 -0.089250565
0001e0 50 75 91 3d 71 21 fb bc 8e 6c 80 3d 89 2f 67 3e
       0.07102454 -0.030655595 0.06270705 0.22576727
0001f0 cc 19 17 bc 97 9f 90 3d 7c 9b 79 be 27 84 0c be
       -0.009222459 0.07061689 -0.24375719 -0.13722287

linear_layer_stack.6.weight f4 [10, 128]
000000 39 fe 99 3d 1d e1 82 3b 39 0e 9b 3d fc 75 0f bf
       0.07519192 0.0039941208 0.07571072 -0.56039405
000010 fd 7d 07 bf 77 ac a0 be fe 0d 47 3d 61 9a 73 3c
       -0.5292662 -0.3138158 0.04859733 0.01486835
000020 0a 91 84 be 16 bb 40 be 06 0d 7e bd 05 e4 8e bc
       -0.25891906 -0.18821368 -0.06202414 -0.017442713
000030 3f 49 2b be 26 1f b5 be 85 33 fa bd 49 0a 1a 3d
       -0.1672716 -0.35375327 -0.12216858 0.037607465
000040 8d bd 4d be e9 2b 76 3e 6c 2e 08 bf 22 b5 8d bc
       -0.20091839 0.24040188 -0.53195834 -0.017298285
000050 bd 10 bc 3e 03 e6 dc be 82 a7 c1 be a0 53 0f bc
       0.3673152 -0.43144235 -0.3782311 -0.008747965
000060 33 0c c5 be c9 bc 25 be 65 a2 26 3e bf fe 6f be
       -0.3848587 -0.16185297 0.16272886 -0.23437022
000070 e4 ea b7 be 2a bb de 3d f9 1c 76 3c 03 8b 05 3e
       -0.35921395 0.108755425 0.015021556 0.1304131
000080 37 4d 08 bf 27 45 35 b9 ec 49 e7 3d 7d 57 9b ba
       -0.5324282 -0.00017287266 0.11293396 -0.0011851635
000090 da 94 94 3d 57 ed 99 be 4d 64 0b 3e ed 3a 81 be
       0.07254954 -0.30063888 0.1361248 -0.2524027
0000a0 6f 26 6d 3e 6b e1 30 be 20 03 30 3e 26 e4 dc b9
       0.23159193 -0.1727349 0.17188692 -0.00042131654
0000b0 22 d1 bb be 0d d7 e0 be bd 2f d3 be b5 8d de be
       -0.36682993 -0.4391407 -0.4124736 -0.4346749
0000c0 f5 c2 a5 be 91 93 d8 bd d7 94 90 3e ad 48 4f be
       -0.32375303 -0.10575021 0.28238556 -0.20242567
0000d0 d2 4e 11 3e 79 c2 87 3d 3f 9a 8b 3e f0 ff 79 3d
       0.14190224 0.066288896 0.27266118 0.061035097
0000e0 7d 80 f0 be eb 29 96 3d 59 1f 7b bd 54 5d 06 3e
       -0.4697303 0.07332214 -0.061309192 0.1312154
0000f0 1b f2 2d 3d d7 0c fb be 53 ae 66 3e fe b6 08 be
       0.042467218 -0.49033234 0.22527437 -0.13351056
000100 24 54 e5 3c b0 6a 6f be 78 33 c1 be 3c de 89 be
       0.027994223 -0.23380542 -0.3773458 -0.26927364
000110 0e 08 5c 3e 55 4d fc bc 1a fb 6d 3d e6 04 2d bc
       0.21487448 -0.030798594 0.058100797 -0.01056025
000120 ad 29 93 bd f6 10 95 be 8e 8c 6a 3e cc ce 99 be
       -0.071856834 -0.29114503 0.2290518 -0.30040586
000130 80 9c 2a 3e a2 d6 f0 bd 8c 29 93 3d dc b9 c5 3d
       0.16661263 -0.11759688 0.07185659 0.096545905
000140 32 b9 a3 be d4 e7 08 3e af 84 b9 3d f9 6f 84 bc
       -0.3197723 0.13369685 0.090585105 -0.016166674
000150 c5 98 29 bd a9 cb c3 bd 64 ef 4b be 5b 58 5c 3e
       -0.041405458 -0.095603295 -0.19915539 0.2151808
000160 f4 8b 43 3e b6 71 27 bf 38 c0 b1 3d 38 27 09 bd
       0.19096357 -0.65407884 0.08679241 -0.033484668
000170 00 69 54 3e 51 8c 12 3e 86 f7 2b 3e 41 21 87 3e
       0.2074318 0.14311339 0.16793641 0.26392558
000180 93 3c d7 bd 4f 93 a1 be 7f 82 54 be 2d 5f 72 3d
       -0.105096005 -0.315577 -0.20752905 0.059172798
000190 1f 25 df 3d 95 86 09 3e fa d4 75 bd de c4 83 3e
       0.10895752 0.13430245 -0.060017563 0.25736135
0001a0 2d 7d 1f 3c aa 92 30 bf f9 9e 57 be 99 b3 84 3d
       0.009734434 -0.6897379 -0.21056737 0.06479568
0001b0 09 3e be 3d e6 08 1b 3e 98 c6 8f bd 0f 36 13 bf
       0.09289176 0.15140113 -0.070203006 -0.5750436
0001c0 07 ac 19 3e 09 cb d0 3d a1 6b 21 3e 9f b1 03 3e
       0.1500703 0.10194976 0.15763713 0.12860726
0001d0 7b b8 37 bd 01 1d 25 3d 7c 28 aa be 69 28 08 3d
       -0.04485367 0.040310863 -0.33234012 0.033241663
0001e0 7c 99 87 be ae c1 0e 3e 0b 52 4c be dd 63 f9 3d
       -0.26484287 0.1394107 -0.19953172 0.121772505
0001f0 e1 4a 51 be aa 71 04 be 17 08 1d 3e a7 24 0d 3e
       -0.2043872 -0.12933984 0.15335117 0.13783513
000200 31 95 e6 be de 5e 0b bd 91 7a 8c be 38 e1 9e be
       -0.450357 -0.03402602 -0.2743726 -0.31031203
000210 de ca b4 be fb 60 9d be d6 ac f8 3d 4e 26 22 bd
       -0.35311025 -0.30738053 0.12142341 -0.03958731
000220 73 53 4e be 62 e6 d4 3d c4 95 67 bd 43 68 b5 3d
       -0.20149021 0.103955045 -0.056539312 0.08857777
000230 a1 5f fc 3d 04 aa 53 3b 2b 17 b1 3d 11 7f c3 bd
       0.12322927 0.0032297382 0.08646997 -0.0954572
000240 cc 61 e6 3d 29 b3 87 be 50 31 37 bd 89 52 64 3e
       0.11249122 -0.26503876 -0.044724762 0.2229711
000250 48 fa 40 3d 5e 70 63 be 0e 03 a5 be e5 24 be bd
       0.047113687 -0.22210833 -0.32228893 -0.09284381
000260 02 45 0b bd 21 ec 08 bf e5 dd 38 be 61 bf a2 be
       -0.034001358 -0.53485304 -0.18053396 -0.31786636
000270 d7 5b 83 3e a8 f2 18 3e f5 d7 58 3e d3 c5 1c 3e
       0.25656006 0.14936316 0.21176131 0.15309839
000280 c7 58 13 3e 7c 05 11 3e 48 46 15 3e c8 c1 5e be
       0.14389335 0.14162248 0.14577591 -0.21753609
000290 c7 26 72 be 35 15 ac bd bb d1 ca bd db 69 95 3c
       -0.23647605 -0.084024824 -0.09903284 0.018238952
0002a0 e6 e6 09 3e a7 cd cc bd 90 2d e7 be 1c 6a de 3d
       0.13466987 -0.100001626 -0.4515195 0.108600825
0002b0 44 ed 23 3e ba fe ee 3d ab 0f 29 3e d9 1d c6 be
       0.16008478 0.11669679 0.16509883 -0.38694647
0002c0 2e 38 45 be 29 02 4d 3e 04 60 ae 3d 60 f9 29 3d
       -0.19259712 0.20020355 0.08514407 0.04149759
0002d0 ea 43 07 bd 63 fc e0 be a2 2c 97 be 9b 77 b8 bd
       -0.033023752 -0.43942556 -0.2952624 -0.09007188
0002e0 30 5b 85 bd 39 bc 01 be 82 1c f0 3d db 96 57 3d
       -0.06511533 -0.12669457 0.117241874 0.0526341
0002f0 20 9f cb 3d 36 e5 e6 be 1e a4 39 be 9d 97 62 3e
       0.0994246 -0.4509675 -0.18129012 0.22128148
000300 82 0f 02 bf 13 b1 55 be f0 09 e9 3d 0e 74 3c 3e
       -0.50804913 -0.2086833 0.113788486 0.18403646
000310 22 8a 06 3e 4b 2a 4b 3d 31 6d 8e 3d bf 7b 3d 3d
       0.13138631 0.04960088 0.0695442 0.04626059
000320 65 2f 30 3d d1 79 02 3e d2 a4 dd bd 66 0b ab be
       0.04301395 0.12741782 -0.108224526 -0.33407134
000330 08 c5 57 3d 83 8b b6 bc 90 32 ee 3d 57 2d bd be
       0.052678138 -0.022283321 0.11630738 -0.36948654
000340 6a a9 f8 3d bc 6d 06 be a6 a4 98 be 64 a2 f1 bd
       0.12141688 -0.13127798 -0.29813117 -0.11798552
000350 58 c6 ec 3d 8e 89 34 3d d3 6f ae be 24 86 b6 be
       0.115612686 0.044076495 -0.3406969 -0.35649216
000360 41 d0 08 3c 7d db ab 3d 6d 1c a6 be eb b9 a8 bb
       0.008350433 0.083914734 -0.32443562 -0.0051491163
000370 5c bc 30 3e f1 1d b4 be a7 97 0f 3e dd 04 b3 bd
       0.17259353 -0.35179093 0.14022695 -0.08741162
000380 37 96 c5 3d c9 93 e3 bb 29 a0 7e 3e 89 e8 a2 bd
       0.09647792 -0.0069451076 0.24865784 -0.07954509
000390 6b 37 9f be e2 03 be 3d ec 69 16 be f5 72 e2 bd
       -0.31096968 0.09278084 -0.14688843 -0.110570826
0003a0 83 61 b0 be 80 42 c9 bd 94 f6 57 bd 00 86 5d 3e
       -0.34449396 -0.09827137 -0.05272539 0.21633148
0003b0 16 73 d4 bd 6e 29 03 bf 78 24 0a be 1e 56 3d 3e
       -0.103735134 -0.5123509 -0.13490474 0.18489882
0003c0 ca f4 18 be 96 d1 de be b3 10 4d 3d d5 be 09 3e
       -0.1493713 -0.43519276 0.050064754 0.13451703
0003d0 9d af 55 bd 47 58 82 bd 26 cb 31 be b4 69 f8 3c
       -0.05216943 -0.06364494 -0.17362651 0.03032384
0003e0 4e e1 d3 be 2d d5 ba be bf a2 b8 be 5c ae b4 bd
       -0.4138283 -0.36490765 -0.36061665 -0.08822319
0003f0 17 44 51 3e 0a 16 4b be cb be 87 be c2 4e f8 3d
       0.2043613 -0.19832626 -0.2651275 0.12124397

linear_layer_stack.6.bias f4 [10]
000000 cd 17 13 bd cd 08 30 be a3 92 64 3e dd c3 93 3e
       -0.03591137 -0.17190857 0.22321562 0.2886037
000010 08 9f ee bd 88 34 97 3c f1 e3 4a be 65 18 42 be
       -0.116514266 0.018457666 -0.19813515 -0.18954618
000020 f1 0b fd 3c 6b 89 11 3e
       0.030889483 0.14212577
