labos/actual_model_fast.pth (torch, 196647 bytes, 6 tensors)

linear_layer_stack.0.weight f4 [256, 55]
00000000: 6f9e dc3e ffc7 363c f045 ab3d 5fb1 0b3f
00000010: 328a 13be 3674 8cbd ddf8 b2bd 600d 9cba
00000020: c996 3a3e c4c1 82be 2065 4d3c 39ea 533d
00000030: eb9a 3a3f 0b59 bbbe d6d5 8d3a 209a 8f3d
00000040: 2718 a43d dc85 b4bd 808b 32bd bfdf 353d
00000050: c110 8bbd 094f d5bc 50e2 fcbc 055d d03e
00000060: 338c 6cbd 6fdc ab3e dcb5 8dbd 8992 f4bd
00000070: 7369 fdbc fdfc a5bd e713 8f3d 903f 66be
00000080: cd2d 40bd 4060 283a 654f c0bd e3e3 653c
00000090: 85d8 7e3d 7217 fe3d 7c6e 823d 06d9 46be
000000a0: bdeb 973d a995 413e 605d 663c 9992 dcbd
000000b0: 54c5 abbb d9de 13be 8c23 52bd 3dcf a53e
000000c0: f1bb 3a3c d562 afbe 840c 3dbe 071b 0dbe
000000d0: b181 663d ab80 f13d 610c 0f3e 072e c13e
000000e0: 1f24 8d3e b9b7 db3d d06b b43e 7b31 4ebe
000000f0: ed9f d73d f507 8ebd d179 9a3c ad7c c6bd
00000100: db1c af3d 5872 c2bd 6102 da3c f8f7 193d
00000110: 7234 273e 38a9 b7bd f834 173e eaf2 c0bb
00000120: 89c5 7c3e fe04 0bbd ebd2 bd3d f4a7 9abe
00000130: 0d55 2cbe 81a0 133d d69f d93d 3e7d 7e3d
00000140: b8b4 03be 3ad4 b9bc c4dc 61be 673f 27be
00000150: b9de 953e c9db 8ebd d7ba 73be d044 803d
00000160: 06b9 34be 4317 cc3c 3e80 083e 0281 44bd
00000170: e830 12bd da61 a53d cb4d 7cbe 391f a63e
00000180: e4b0 b23e 31d7 653e d166 8ebe d040 463e
00000190: c339 273c 9b73 a7be dcb3 11be a81d ce3d
000001a0: 5969 90be 0324 b3be d18e 8ebe ad0f 09bf
000001b0: 6883 e1bc 3364 d0be 79d6 c23d 44e6 10be
000001c0: a460 aa3d a04e 9fbc 8168 a9bd 484e 9dbe
000001d0: 5c6e 01bc 8c04 4abe 35ee d5bd 4758 29be
000001e0: 7994 603c 5d3c c03c fdd3 2ebe 124f 173e
000001f0: 7e5d 64bf 0257 ddbd 45be 7ebe d21b 32be
00000200: b3fb bc3e e8ec 1b3e b214 ec3d f3d7 c63d
00000210: 55ba cabc 6b7d b03e a9b5 a3bc e58c 16bd
00000220: 6be6 6bbe aca5 9dbe f6aa 4a3d 1fb4 aeba
00000230: c604 63bc ea2e 71be 605d 593e c6ff 9cbd
00000240: d59d 5fbe bdb4 0e3e 585a edbd d031 323e
00000250: a994 6e3e c1be 99be 0399 7b3d 6a6c 45bc
00000260: 7599 633d cdc0 c53d 746d 143d 6acd 07be
00000270: ae90 183e 4ed6 5d3d 9ad9 4bbd bd6f b4be
00000280: 99bf 30be 883a dd3e c310 b43d 606b d6be
00000290: 7184 e33d c95d 54be b3fd cebe df9c cd3e
000002a0: db0c 5a3e d0cd 76be 6c50 9dbd 58a5 41be
000002b0: 7533 a73d 68e7 0fbe 1465 afbd edde 3fbe
000002c0: 8c48 b2bd 1541 3b3e 5d2e 533e 16a4 033c
000002d0: f054 8a3d ac76 e0bd 2905 c13c b456 8cbd
000002e0: ec16 c13e 87a8 543d ff08 9e3e 217f f03d
000002f0: ec25 d7bd 2aba 883d a188 993e fc94 193d
00000300: 2cbd 263d 1f86 753c f877 a3bd a3b9 9d3d
00000310: 0090 1bbd df6c 503e 1326 29be 341d 653a
00000320: e11c 6fbd 3e7c 393d 124e 883e d53e 993c
00000330: f101 a1bd 7324 dfbd 5167 d8bd da7c 94bc
00000340: 4390 3cbe a6cd 543e 8945 9a3e b454 b13d
00000350: 44a6 233c e10c 67be 17e8 57be fd73 323e
00000360: 5869 823e da6e 983d 8099 93be 9889 0ebe
00000370: ba12 f4bd 373f 81bc 7004 d13d b02d 4d3e
00000380: 4bf2 98be 473c 96be 54b6 7f3d be8b 6cbd
00000390: 0462 54be 602f 44be ddf0 543e 34ba 733d
000003a0: 81d4 80bd 22c6 333e c27f bf3b 11c4 193e
000003b0: 7573 ec3d ad9b dabc eb32 09be 1c98 babd
000003c0: 123d dd3e a830 b2bd 192d 60bd 4a01 893d
000003d0: 569b 9ebe 5725 bebc f434 09be c8f1 163d
000003e0: 51d3 23be 6503 e5bd e9ce 863c 23a9 23be
000003f0: c77c 91bc 6352 4abc 9b58 f93c 39d1 66be
0.43089625 0.011156081 0.08362949 0.5456752 -0.14408186 -0.06858103 -0.08738873 -0.0011905842
0.18221582 -0.25538456 0.012536317 0.051737044 0.72892636 -0.36591372 0.0010821174 0.07011819
0.08012419 -0.08814594 -0.04359007 0.044402834 -0.06790305 -0.026038663 -0.030869633 0.40695968
-0.057750892 0.33566615 -0.069194525 -0.11942012 -0.030934071 -0.08104894 0.06986218 -0.22485185
-0.04691868 0.0006423034 -0.09390143 0.014031383 0.062218208 0.124068156 0.063687295 -0.19418725
0.074180104 0.18904747 0.014060348 -0.10770149 -0.005242029 -0.14440478 -0.05130343 0.32384673
0.011397348 -0.3425509 -0.18461806 -0.13779841 0.056276027 0.117921196 0.13969566 0.3773043
0.2756662 0.10728402 0.35238504 -0.20136063 0.1052855 -0.069351114 0.018856915 -0.09691749
0.085504256 -0.094944656 0.026612462 0.037589997 0.163286 -0.08967823 0.147663 -0.0058883326
0.24684729 -0.033940308 0.09268745 -0.30206263 -0.1682932 0.03604174 0.106261894 0.06213116
-0.12861907 -0.022684205 -0.22056872 -0.1633278 0.29271486 -0.069755144 -0.23801742 0.06263125
-0.17648706 0.024913436 0.1333017 -0.047974594 -0.035691172 0.08075304 -0.2463905 0.32445696
0.34900582 0.2244537 -0.27812818 0.19360662 0.010206643 -0.32705387 -0.14228767 0.1006425
-0.28205374 -0.34988412 -0.27843335 -0.53539544 -0.02752848 -0.40701446 0.09513564 -0.1415034
0.08319214 -0.019446671 -0.08271886 -0.30723786 -0.007899847 -0.19728297 -0.10445825 -0.16537581
0.013707274 0.023466283 -0.17073055 0.14776257 -0.8920516 -0.10807611 -0.2487727 -0.17393425
0.3691078 0.15227091 0.11527385 0.09709158 -0.024747053 0.34470686 -0.019984083 -0.03675546
-0.23037116 -0.3079046 0.049479447 -0.0013328827 -0.013856119 -0.23553053 0.21227026 -0.076659724
-0.21837552 0.13936134 -0.11589497 0.17401814 0.23298897 -0.30028346 0.06142522 -0.012049774
0.05556627 0.096559145 0.036237195 -0.13261953 0.14898941 0.054159455 -0.049768068 -0.352415
-0.17260589 0.43208718 0.087922595 -0.41878796 0.111092456 -0.20738901 -0.40427932 0.40158746
0.21293966 -0.24101949 -0.07681355 -0.1891073 0.081641115 -0.14053118 -0.08564201 -0.18737383
-0.087052435 0.18286546 0.20623155 0.008034727 0.06754482 -0.10960135 0.02356203 -0.06852475
0.377128 0.051918533 0.30866238 0.11742998 -0.1050528 0.06676133 0.29987052 0.0374956
0.040707752 0.01498559 -0.079818666 0.07701423 -0.037979126 0.20354031 -0.1651843 0.00087400083
-0.05837715 0.045284502 0.26622063 0.018706718 -0.078616984 -0.10895624 -0.10566581 -0.01812594
-0.18414406 0.20781574 0.30131176 0.08658734 0.009988371 -0.22563507 -0.21084629 0.17427059
0.25470996 0.07443018 -0.2882805 -0.13919675 -0.11917634 -0.015777213 0.102059245 0.2003696
-0.29872355 -0.29342863 0.06242974 -0.057750456 -0.20740515 -0.19158697 0.20795007 0.05950375
-0.06290532 0.1755605 0.0058440873 0.150162 0.11545459 -0.02668556 -0.1339833 -0.09111044
0.43210655 -0.08700687 -0.05473051 0.06689699 -0.30977887 -0.023211164 -0.13399106 0.036851674
-0.1599858 -0.11182288 0.016456084 -0.1598249 -0.017759694 -0.012348744 0.030437758 -0.2254075

linear_layer_stack.0.bias f4 [256]
00000000: d3ed b2be ca07 08bf f2dd c0be d006 6cbe
00000010: 0f53 67be 52b2 73be 826c 13be b88d 5ebe
00000020: 3e93 dcba a842 fcbe fdde 8bbe 10a7 f5be
00000030: d595 2abe 61c7 083e 629b 1ebf 507e e8be
00000040: 94b6 31be 0ea3 00bf 10b6 4cbe cfef 85bd
00000050: a13e e8bd 71cd b9be 450c 083d 5568 8bbe
00000060: c5d5 ddbe 6bf4 63be a8f2 05be 9a47 a3bd
00000070: 0053 23bf d0f9 00bf 059e 6abe f951 d6be
00000080: 5bd4 3bbe 571e a5be 4cb9 05bf abd7 b4be
00000090: 4457 00bf d2cb 09bf 6e9f 9dbe 5cb5 87be
000000a0: b513 49be c00d 19be f5c3 1dbf d4b5 35bd
000000b0: 1a49 06bf cf96 32be a6dd 70be 372f 0cbf
000000c0: 0ce0 a0be 0d3b d8be d7a8 9abe b3b6 41be
000000d0: b73c bbbe e326 f2be b2f0 b7be 229d 81be
000000e0: abd7 9dbe c123 3abe 5f6e 2dbe 2b40 8abe
000000f0: b967 b6be 3d55 f1be c6fb 13bd 4f93 c93d
00000100: 8659 95bd 7a43 0ebf 4fcd c8be 6bde 77be
00000110: 6710 553d e7f9 9abd 9be3 9dbd bc6f 0fbb
00000120: c28e 443e ca6f 56bd a76e ecbe 98ee e1bd
00000130: 3f14 43be 69cd a7be cdbe 88be 9c17 c5be
00000140: 08d6 123e 00bf 56be 49d1 fe3c 14d9 88be
00000150: d34b 4fbd 08c3 97be 0846 b639 9f27 acbe
00000160: e040 1abe f6ed d1be 71bd a0be 0193 2dbf
00000170: f60d 58be c3bd a7be 5ba0 96be fab4 a5be
00000180: 7e16 72be 7a8a dfbe 0a80 cfbc 9d2f 12bf
00000190: 3d7d 97be 5976 ffbd d5c4 9ebe 0516 c2be
000001a0: 90f3 d9be ac77 a7be ad77 8cbe b686 80be
000001b0: 9859 9cbe 12a8 74be 23c2 d4bd d750 06be
000001c0: 75ca 1dbe c214 31bd e1a5 babe ec91 45bd
000001d0: 0e9a 94be 6a79 a7be 4c7f b0be 23d1 913b
000001e0: 3fd7 01bf cf61 d3be ac94 b2be 8619 d7be
000001f0: b617 80be 38d5 bebe 922a 04bf 4392 babd
00000200: 09a9 98bd 4084 8fbe f74a 33bf 73e8 e4be
00000210: a1a3 f3be ad9a f0be 6bbe 59be 28b6 14bf
00000220: e54d cebe 1629 c4be 3a36 98be 0fdd 40be
00000230: 3b2a d6be b17e c2be 7962 fabe bae2 f0bd
00000240: 4184 23be 23a6 0ebf 790a 41be 2649 55be
00000250: 2420 f7be e987 81be 75c9 89bd 77b9 bebe
00000260: 807e 32be 6a0c 1ebe b6c6 13be 2f07 5cbe
00000270: 5877 cdbe 897e a8be 2aaa 9cbe 681e 133c
00000280: efa1 75be 0fd3 bebc f555 9ebe 26d9 d0bc
00000290: dd9e 79be 0b6c 98be e138 1cbf a4d2 a0be
000002a0: b093 3c3d 0e01 cbbe 30c2 04bf 412a 0ebf
000002b0: 6372 fbbe 4845 48bd 875f 03bf 4911 3fbe
000002c0: 2e33 02bf 5961 e9be 7753 1c3e 2a0a 01bf
000002d0: b5ba 87be 619c 08bf ca9b 49bd 01fb 5dbd
000002e0: b896 8abe 685a 323d 7933 4fbe 5216 99be
000002f0: 7665 1ebe 750f 22bf c8ed 35bf 01ba 5dbe
00000300: fed2 debd c203 06bf 92a4 07bf 93aa 56be
00000310: 3626 15bf b2c3 08be 732a 84be 3701 b5be
00000320: 9bcc 99be 45b6 8ebe 9675 4abe 18c5 2cbe
00000330: 3077 00bf c7a3 01bf 1c07 55be 358b 07be
00000340: 70ab 0d3e 1ff5 bbbe 487d dcbe 39fc 01bf
00000350: 3d1a 963e c8b3 05bf adc6 fbbe b7cd b4be
00000360: d035 b7be 1dde 2ebe 4381 d2be dd69 5fbe
00000370: ac17 d1be 3d52 bebe 894c cabe 912a c0be
00000380: 87b5 8fbe c77b 98be 0404 99bc 582a 22bf
00000390: 55e5 78be 8497 bebe 7c23 07bf 7a85 b5be
000003a0: d876 a1be 4754 e5be 6ed2 e4be a46e 15bf
000003b0: 94ff 883d a06d eabe 5cb8 10be e54f 29be
000003c0: d61b 55be 01c6 55be 6e6b c5be c937 cdbe
000003d0: 69f7 aebe ae6c 8c3d 4873 8cbe 72f1 d4be
000003e0: 625e f3be 5d59 0bbe 52f8 e2be af77 3ebe
000003f0: 6b8e 00bf 06a7 2cbe 10ee c5be 0411 c8bd
-0.3494707 -0.53136885 -0.3766933 -0.23049474 -0.22590278 -0.23798493 -0.14396861 -0.21733749
-0.001682855 -0.49269605 -0.27318564 -0.4797902 -0.16658719 0.13357307 -0.61955845 -0.4540887
-0.17354804 -0.502488 -0.19991326 -0.065398805 -0.113400705 -0.36289552 0.033214826 -0.27228037
-0.43327156 -0.22261207 -0.13080847 -0.07972641 -0.6379852 -0.50381184 -0.22911842 -0.41859415
-0.18342726 -0.3224971 -0.52235866 -0.35320792 -0.50133157 -0.5382663 -0.30785698 -0.26505554
-0.19636424 -0.14946651 -0.6162713 -0.044362858 -0.52455294 -0.17440341 -0.23522052 -0.54759544
-0.31420934 -0.42232552 -0.3020694 -0.1891735 -0.3656976 -0.47295293 -0.35925823 -0.25315195
-0.30828604 -0.18177702 -0.16936634 -0.2700208 -0.3562601 -0.47135344 -0.03612878 0.0984255
-0.07292466 -0.5557171 -0.39219138 -0.2420594 0.052017596 -0.07567196 -0.07709428 -0.0021886667
0.19195083 -0.052352704 -0.4617817 -0.11031836 -0.19050692 -0.32773903 -0.2670807 -0.38494575
0.14339459 -0.20971298 0.031105654 -0.26728117 -0.05060942 -0.29640985 0.00034765922 -0.33623978
-0.1506381 -0.41001862 -0.31394532 -0.67802435 -0.21099076 -0.32761964 -0.29419217 -0.32364637
-0.23641393 -0.43660337 -0.025329608 -0.571039 -0.29587737 -0.12473745 -0.31009546 -0.37907425
-0.42568636 -0.3270849 -0.27435055 -0.25102776 -0.30537105 -0.23892239 -0.10388591 -0.13116775
-0.15409262 -0.043232687 -0.3645468 -0.048234865 -0.29023784 -0.3270982 -0.3447212 0.00444998
-0.50719064 -0.4128556 -0.34879053 -0.4201166 -0.2501809 -0.37272048 -0.5162746 -0.091099285
-0.07454116 -0.28030586 -0.7003626 -0.44708595 -0.47585776 -0.46993008 -0.21264045 -0.5809045
-0.40293804 -0.38312596 -0.29728872 -0.18834327 -0.41829094 -0.37987283 -0.48903254 -0.11761995
-0.1596842 -0.55722255 -0.18851651 -0.20828685 -0.4826671 -0.25299004 -0.06727878 -0.37250873
-0.17431068 -0.15434423 -0.14431271 -0.21487115 -0.40130115 -0.3290904 -0.30598575 0.008979417
-0.23987554 -0.023294 -0.30924955 -0.02549417 -0.24377008 -0.2976993 -0.6102429 -0.31410706
0.046039283 -0.39649242 -0.51858807 -0.55533224 -0.49110708 -0.048894197 -0.5131764 -0.18658938
-0.50859344 -0.45582083 0.15266214 -0.50406134 -0.26509634 -0.53363615 -0.049220838 -0.054194454
-0.27068114 0.04354325 -0.20234479 -0.29899842 -0.15468392 -0.63304836 -0.7106595 -0.21652986
-0.10880087 -0.52349484 -0.5298549 -0.20963506 -0.5826143 -0.13355902 -0.25813636 -0.3535249
-0.30038914 -0.27873436 -0.19771418 -0.1687206 -0.50181866 -0.5064053 -0.20803493 -0.13236697
0.1383493 -0.3671045 -0.43064332 -0.50775486 0.29316893 -0.5222745 -0.49175015 -0.35313198
-0.35783243 -0.17076917 -0.41114244 -0.21817727 -0.40838373 -0.37172118 -0.39511517 -0.37532476
-0.28068182 -0.29781935 -0.018678673 -0.6334586 -0.24306233 -0.37224972 -0.5278852 -0.35453397
-0.31535983 -0.4479086 -0.44691795 -0.5837195 0.06689373 -0.45786762 -0.14132828 -0.16534384
-0.208114 -0.20876314 -0.38558525 -0.40081623 -0.34173134 0.068566665 -0.27431703 -0.41590458
-0.47532946 -0.13608308 -0.44330078 -0.18600343 -0.5021731 -0.1686059 -0.3865819 -0.097688705

linear_layer_stack.3.weight f4 [128, 256]
00000000: 9df2 8e3e 9538 7f3e 9968 d83d 24f2 553c
00000010: 252f c4bd abb4 ff3c 2473 6cbc be55 20be
00000020: 3063 833e e0bb 48be ddac b0be 7ee6 a53e
00000030: 5d46 98be e0d4 c43b 7fbb bdbd e6b3 8e3d
00000040: f7e9 e6bb 6276 95be 8046 38bd d31c e73b
00000050: c9c0 1f3e 32a5 6b3e 73af f83c cc35 8cbc
00000060: dc04 c73d 4488 26bd 18e7 a33c c67f d5bd
00000070: 4aa3 ef3d 5991 80be 5000 d23c db4d debc
00000080: 9488 4cbd deb2 55bd a151 98bc 36bf d8be
00000090: 3d8b 733e a0c6 08be 0e71 49bd 56e2 673d
000000a0: a0fa acbc 79ef 9bbe 161f bc3d 8032 6dbe
000000b0: 3e15 9cbe c1ab 84bd bcfd d8bd a026 293e
000000c0: d349 60bd 9656 6e3d fdbd 2dbe 5f50 fd3d
000000d0: d47e bdbc 4c9d 4a3e ee60 bdbb 0a03 32bd
000000e0: aea7 10bd 1f07 bc3e 7194 8fbd 5025 bdbd
000000f0: 32da f13d 39ca b63d dfea 04be 9f72 23bd
00000100: aed6 28be 47d4 1e3e acee 933e 3f2d 1ebd
00000110: 7b9b 6ebd 632c 9ebd cc8c 67be 4c83 a8bd
00000120: 1a21 303e 06e3 bebc e377 853d 57e0 89bd
00000130: b693 293e b8eb 0bbe 4cae c4be 92c1 9bbd
00000140: 56cb e6be 8fe2 fbbd bcca 853d 6fbb ed3c
00000150: b7b7 8d3d 2cc9 f2bc 8672 173e 99fc 6b3e
00000160: d41f 903d b3f7 f93d d533 0c3e 13f2 553e
00000170: feec 40bc b273 87bd f718 45bd e033 053d
00000180: 2107 de3d 145b b9bc 4f79 c23e d90a 04bd
00000190: eb6c 673d f5bc 5b3e 2809 613e 353b 8abc
000001a0: 94cf 08be 1bea ddbc 32ec 1f3e c466 ac3d
000001b0: 76ca e7bd 29b2 7f3d 14d1 5a3e 2b25 cebd
000001c0: 6f16 36be fed4 13bd 7f72 38bd 9892 493d
000001d0: 6cb2 ca3e abcd 9d3d d033 85bd bd0d df3d
000001e0: cc77 acbd c2f8 893e 415d 3e3e 666c 123c
000001f0: 818a f1bd 5464 98bd 6b66 67be 95a2 aabe
00000200: dc0a d83d fdf4 5cbe 8d90 9fbd 4638 84bd
00000210: 8404 333e ffbf 583e 128a 053e ff15 2a3e
00000220: 3754 733c ab35 2abe caf1 a43d 2246 eabe
00000230: f9d7 303e 85e8 a23d bfde a3bd 05fe 8e3e
00000240: 3a85 eabb 5048 863c 91fc dbbd 176e 8fbd
00000250: ba45 dd3c 42b1 b2bc 9da1 8ebd 5e34 96bd
00000260: 3c7e 7bbe 1e3e 1a3b bc7c d13d b2c3 e73b
00000270: 1582 84be c406 8e3d 9ca0 303d 9a8e 2fbe
00000280: c94b 183e 5636 c9be fe74 de3d cea5 14be
00000290: 0f0e 853e f494 713e a86f 79be d337 72bd
000002a0: bfc0 c7ba fef8 173e 0d2b c4bd 1fd4 9c3d
000002b0: f9fc 203d 4456 59bd f1c4 efbe 7dcf 88bd
000002c0: 91f8 0e3d 17aa b33d 2fdc 61bd 3ad1 b2bc
000002d0: b122 6dbc 0cbd 02be 1e04 d43c 8c4f 23be
000002e0: 07b6 833d 5889 95bc 15d4 b0bc 3c9b 7bbd
000002f0: b02c 90b9 58a7 8e3e 951a ff3a 3b56 803d
00000300: 14da 0cbd 50dd f43e 5f7a e73d fb14 86bd
00000310: fdd3 243e d17a 6f3b f341 e43d d002 e73d
00000320: 5950 98be c669 213d ab4d 4b3d df65 68be
00000330: 6ad1 c2bd b876 343e 522f c23d d24b 17bd
00000340: 82a7 e2bc b751 3e3e 4d88 4d3e 96e8 883d
00000350: 8362 4cbe 4f23 103e 79fa f83d e762 003e
00000360: 9340 f53d a8fe 47be 6ba6 b33d b51a 133d
00000370: d710 473c 40c0 dcbd 8f27 9a3d 8756 5f3e
00000380: c1dc f5bd 11a1 903d da36 04be 1ea9 ad3e
00000390: 4b70 8c3d 1aa4 f33d ab5a ca3d 533d 2f3d
000003a0: 67b4 503d bcdf 6b3e 2fac 19bd 2a9b 773d
000003b0: 8cd7 823c 37cb 483e 2adf bdbd 27fc d9bd
000003c0: 414b 633e 8842 c0bd eb2e bdbd a275 2dbe
000003d0: ec93 3a3e 3417 c3ba 1702 d3be 7dc5 dcbd
000003e0: b931 7ebe 73eb 1cbe a51d e1bd 96dc 103d
000003f0: cf5e 7abe 38bd 853d e558 0abe 46ab 90bd
0.27919474 0.24923928 0.105668254 0.013058219 -0.095793046 0.031214079 -0.014431749 -0.15657708
0.25661612 -0.19602919 -0.34506884 0.32402414 -0.29741183 0.006006822 -0.09264278 0.06967907
-0.0070469338 -0.2919188 -0.04498911 0.0070529967 0.15600885 0.23012236 0.030357098 -0.017115496
0.09717724 -0.040657297 0.020007655 -0.104247615 0.11701067 -0.2511089 0.025634915 -0.027136734
-0.04993494 -0.052172534 -0.018593611 -0.42333382 0.23783584 -0.1335702 -0.049180083 0.056612335
-0.021115601 -0.3045614 0.09185617 -0.23163795 -0.30484957 -0.06478072 -0.10595271 0.1651864
-0.054757904 0.058188044 -0.16967006 0.12368845 -0.023131765 0.19786566 -0.005779377 -0.04345993
-0.03531616 0.36724183 -0.07010735 -0.092356324 0.118091956 0.0892529 -0.12980221 -0.039904233
-0.16488144 0.15510665 0.2889303 -0.03861737 -0.058253746 -0.0772331 -0.22612303 -0.08228168
0.17200127 -0.023301613 0.06517007 -0.067322426 0.16560254 -0.13664138 -0.38414228 -0.0760528
-0.45077008 -0.12299072 0.06532809 0.02902004 0.069198065 -0.029636942 0.14789781 0.23045577
0.07037321 0.12205448 0.13691647 0.20893125 -0.011775253 -0.06613864 -0.04811951 0.032520175
0.108412035 -0.022626437 0.37983176 -0.032236908 0.056500357 0.214588 0.21976149 -0.016873935
-0.13360435 -0.02708917 0.15617445 0.084180385 -0.11317913 0.062425766 0.2136882 -0.10065683
-0.17781995 -0.036091797 -0.045031067 0.04921207 0.3958925 0.07705244 -0.06504023 0.10891292
-0.08421287 0.269476 0.18590261 0.008936977 -0.11793996 -0.07441011 -0.22597663 -0.33327165
0.10548946 -0.2157783 -0.07791243 -0.06456046 0.17482191 0.2116699 0.13040951 0.16609953
0.014851621 -0.16622035 0.0805393 -0.45756632 0.17269887 0.07954506 -0.0800147 0.27928177
-0.007156995 0.016391903 -0.107415326 -0.0700342 0.027010787 -0.021813039 -0.06964419 -0.07334207
-0.24559873 0.002353556 0.10228869 0.0070728892 -0.25880495 0.06934884 0.04312192 -0.17144242
0.1487266 -0.39299268 0.10862158 -0.14516374 0.25987288 0.23591977 -0.24359 -0.05913527
-0.0015239938 0.14841077 -0.09578524 0.076576464 0.039303754 -0.053060785 -0.46829942 -0.066802
0.03490502 0.087726764 -0.055141624 -0.021828283 -0.014473603 -0.12767428 0.02588087 -0.15948313
0.06431203 -0.018253967 -0.021585504 -0.06142734 -0.00027499115 0.27862048 0.0019462878 0.06266447
-0.034387663 0.47825098 0.11302637 -0.065469705 0.16096492 0.003654171 0.11145391 0.11279833
-0.297488 0.039407514 0.049634617 -0.2269511 -0.09512599 0.17623413 0.09481682 -0.036937542
-0.027667765 0.18585859 0.20071526 0.06684987 -0.19959454 0.14075969 0.12157149 0.12537728
0.11975207 -0.19530737 0.08771976 0.03591414 0.012150011 -0.10778856 0.075270765 0.21810351
-0.12004996 0.07061971 -0.12911549 0.3391809 0.06857356 0.11896534 0.09880575 0.042783093
0.050953295 0.23034567 -0.037517723 0.06045071 0.015971921 0.1960877 -0.09271081 -0.10643797
0.22196676 -0.0938769 -0.092374645 -0.16939405 0.1822049 -0.0014884234 -0.41212532 -0.107798554
-0.24823655 -0.15324192 -0.10991982 0.035366617 -0.24450229 0.06530231 -0.13510473 -0.07063918

linear_layer_stack.3.bias f4 [128]
00000000: af29 88be ad39 e33d 42ad a83d 55d8 ea3d
00000010: 93ef 103e ae3c 4e3e e5dc 58be de6e e13d
00000020: 217f 3e3e 76d1 233d 6fa1 0fbe e59f 66be
00000030: 2703 8ebe fccb 433e f29e 8bbd 80ee 19be
00000040: 67b1 ab3e 9a72 05be 5fb5 623d 2255 a53d
00000050: 7da3 a8be f43c 9b3b 2864 4c3e 1efa ae3e
00000060: c442 4c3e c1cc b33e 6243 b03d b0c4 633d
00000070: 6850 57bd 5533 1cbe 3495 62bc 8268 0cbe
00000080: 55b6 7abe 94ec bebd cf04 37bd 2340 113e
00000090: 6626 343e 7694 16be f99b 0f3e ba36 513e
000000a0: de34 0bbe ca33 973d b214 133d ca78 8c3e
000000b0: c90e 4d3c 0120 dcbd a74e 61be 5eb3 043e
000000c0: 59a0 233d 38ca 813e 3109 343d 53b4 e93d
000000d0: 5e06 703e 9c87 943e 9e76 a2bd ddcf a53e
000000e0: d55a 8e3b e4dd 2e3e 5df2 423e d024 ee3d
000000f0: a3f4 9a3c bce0 873e f006 643e 7d7c f63d
00000100: f745 c23d b417 b53d 03d0 7b3c d6e8 85ba
00000110: 3b33 bc3b c628 98be fd7f 04be f4f6 e93c
00000120: a870 833d 14ee 9cbe c48c 00bd 6d0e d73d
00000130: 81e5 8abe c729 8b3c b6ec 353e 5bcc 743e
00000140: c228 2f3e 10b1 673c 3fe6 663e 56aa 233e
00000150: 1a75 ca3a 6eee 583e 9adf 743e 18cf 273e
00000160: 8779 203d 2e55 be3e f3b0 383e 013d 3ebe
00000170: 5bb1 12be 4974 233e e76d 0f3c 86d7 60be
00000180: 173b 7dbe e511 4cbe d551 723e 65e8 86be
00000190: 8dfd 8e3e 3e17 6d3d d0ce 463e e688 a0bc
000001a0: 869f 2fbd 13a4 403c 3ffc 7e3d 119c 0abe
000001b0: 45c6 523e 4ad0 493e da29 d7be a00e febc
000001c0: 6ebb fa3d 7d18 ffbc f418 cb3d b2c8 31be
000001d0: 22b7 98be b112 5ebc 7f7c 4fbe 6855 15be
000001e0: ab52 21be 4761 e43b d66a e93d ff64 273e
000001f0: 74ed 093e 8900 d73d f5c7 4fbe 797d 3cbe
-0.26594302 0.11094985 0.08236171 0.11467043 0.1415389 0.20140335 -0.21178015 0.11007474
0.18603183 0.03999468 -0.14026426 -0.22521932 -0.2773678 0.19120783 -0.06817426 -0.15032387
0.33533785 -0.13031998 0.05534875 0.080728784 -0.32937232 0.004737491 0.19960082 0.341752
0.19947344 0.35117152 0.08606602 0.055607498 -0.052566916 -0.15253957 -0.013829518 -0.13711742
-0.24483617 -0.093224674 -0.04468232 0.14184622 0.17592773 -0.14705071 0.14024343 0.20431033
-0.13594386 0.07382925 0.03590841 0.27435905 0.012515732 -0.10748292 -0.2200266 0.12959048
0.03994784 0.25349593 0.043954078 0.11411347 0.23439929 0.29009712 -0.07932781 0.3238515
0.004344324 0.17076832 0.19037767 0.11628115 0.01891548 0.26538646 0.22268271 0.12035463
0.09486001 0.08842412 0.015369418 -0.0010216485 0.005743412 -0.29718608 -0.12939449 0.02856014
0.06417972 -0.3065039 -0.031384245 0.105007984 -0.27128223 0.016987694 0.1776608 0.2390608
0.17105392 0.014141336 0.2254877 0.15982947 0.0015446276 0.21184704 0.23913422 0.16387594
0.039178398 0.37174362 0.18036251 -0.18577959 -0.14325468 0.15962328 0.00875423 -0.21957216
-0.24729572 -0.19928701 0.23664029 -0.26349178 0.2792782 0.057883494 0.1941483 -0.019596528
-0.042876743 0.011757868 0.06225228 -0.13536097 0.20583446 0.19708362 -0.42024118 -0.031012833
0.122427806 -0.031139607 0.09916869 -0.17361715 -0.2982722 -0.013554261 -0.20262335 -0.14583361
-0.15754192 0.006969604 0.113973305 0.1634712 0.13469487 0.10498149 -0.20291121 -0.18407239

linear_layer_stack.6.weight f4 [10, 128]
00000000: fa0d ba3d a102 443e 7c8e 5dbd 2ad9 d3be
00000010: 96a5 eebe f4d3 c3be 31a4 0abd 99b5 2e3d
00000020: 55e1 d73c 845d 00be 3417 dcbb 6fa7 9d3d
00000030: 2d11 203e f122 a7be 0248 bbbc 41cc 463e
00000040: ec7f 58be 0ee9 e43d 49af d8be 602e 153c
00000050: 0f2f a23e 178e debe af1e 90be c402 123e
00000060: 8b26 07bf bf8e 2ebe 34f4 463e 24e1 8bbe
00000070: dd47 09bf 30b7 0c3e 3dc4 213d dd78 413e
00000080: 9845 2abf 3a72 cf3d 4f75 443e 64d1 7f3d
00000090: bddb 963d e787 08be 7d49 fc3d 9222 97be
000000a0: 2009 5a3e 7186 83be 0ac7 0b3e 199d cbbd
000000b0: 49c1 c7be 071a b5be d991 a6be cb42 b5be
000000c0: c1ca d03d 67cf dbbd eb66 853e 69f8 293d
000000d0: 05c4 e63d 3287 893d 6f38 743e 15e5 c33d
000000e0: e5a4 9cbe 18e9 1a3c 6a59 8fbd 7bfe 143e
000000f0: 12e5 1a3e 4eac f8be 3373 bd3d 4ee6 73bd
00000100: d5bf 01be b082 c9bd 2670 cebe d155 68be
00000110: 3947 4a3e 2db8 2dbd 7026 c63d c2a3 b5be
00000120: 1c3d 943d 2d71 80be b41b 1e3e 49a2 9ebe
00000130: c7f2 293e 0159 2abe 0975 38bd 4c14 0c3e
00000140: 2461 ecbe cbca d23d ee86 673c d393 6c3d
00000150: 1ee1 c83e 62bd 21bc 8bb4 99be d3b8 d23d
00000160: 37be ee3d 92e0 19bf 1e24 993c 4032 e63d
00000170: d576 ae3e 6811 c83d 8167 1f3e dbef 543e
00000180: cc9b 9abd ec26 81be 0eee 59be da66 013e
00000190: ba46 ef3d 5bf8 113e 1a31 d33a 060c fa3d
000001a0: d80b 833d f998 17bf 255e fabd 83b7 ad3c
000001b0: 87c9 c93d c1f8 fe3d b375 bdbd dad0 0ebf
000001c0: 64e1 033e 525d 093e 3d4e 553e 7fac ce3d
000001d0: 8b78 8c3e 3f2b a2ba f37c a2bd 4a74 86bc
000001e0: 54aa f5be 53b6 263e e1a0 6cbe 3acf 11bc
000001f0: de69 afbd 712d 80be fdf1 f33d f56d 0f3e
00000200: 1c01 a5be 8fa3 b13e fbf9 56be 08c7 6ebe
00000210: 58ad 5bbe e317 eebe ecd9 063e 5a5b d9bd
00000220: b687 31be ff00 e23d cd37 03bd 983a 9c3d
00000230: f413 563e 9973 6f3d 057d 023e de3a b5bd
00000240: 2a42 3a3e 88ba 8abd ebdc 8dbd c10a 3f3e
00000250: 6cd0 9bbc fceb 8cbe 764a ccbe 99a0 0cbe
00000260: bc86 fabd c62b adbe 3116 36be d633 4dbe
00000270: ff83 fd3d f5de 253e 19eb 463e c312 f73d
00000280: 5e51 1f3e d4f2 d03d 7e24 283e b831 85be
00000290: da69 8fbe 7e1c a53c 6b98 b3bd c12c 7c3d
000002a0: 7a6d 683e c368 0ebd a198 dabe f538 0b3e
000002b0: b241 103e 5ffe 953d 14c2 003e d3b6 7dbe
000002c0: b1ad dcbd 8198 333e 143e 213d 9b11 003e
000002d0: c503 15bd 57c2 f6be 232b 16be b318 6ebe
000002e0: 07f1 dabd e643 6cbe 63c1 113e 346e 723d
000002f0: 7a42 cb3d ad1f 07bf 21e8 aabe 75bf 7b3e
00000300: 2e49 cfbe 51ea d7bd b4ca b23d 2a91 293e
00000310: 47aa b43d 306d 113e cb82 7a3d 0e6a 9ebb
00000320: 8d5d 9a3d 9b55 a0bc ad99 06be c49a 98be
00000330: c1ba d63d 4865 013c b523 de3d ffd8 28be
00000340: 4c72 263e 9c1d 7cbe efd8 3dbe 5afe 6fbe
00000350: 3f6b 953d e3f9 6f3d 5140 adbe 0c37 f7be
00000360: 338b 1fbc a89a aa3d 5843 c5be 8a15 0f3e
00000370: ad8d 2a3e 71af c7be 0556 da3d a4ed 03be
00000380: 84af 343e 18cc 04bd 4aa8 453e 97f8 c0bd
00000390: 12f0 99bd a69c 863d d2e3 2dbe 8ada 0abc
000003a0: 06e4 4fbe 066b 95bc 3767 0cbd bc74 0f3e
000003b0: 6c71 f2bd 5eaa a3be 2f48 0abe 0209 253e
000003c0: 1603 8bbd f329 b9be b726 883d f8dd 023e
000003d0: 15b5 cb3b c999 86bd 1763 d6bd c472 5b3d
000003e0: ad65 ccbe b87a 7bbe 35a0 bfbe 58b9 f8bc
000003f0: 27c4 453d 39e6 96be a3a4 afbd 5916 cf3d
0.09084697 0.19141628 -0.05409096 -0.4137662 -0.46610707 -0.38247645 -0.03384799 0.042653654
0.026352564 -0.12535673 -0.006716633 0.07697951 0.15631552 -0.32643846 -0.022861484 0.19413854
-0.21142548 0.11177264 -0.42321232 0.009105295 0.31676528 -0.4346778 -0.2814841 0.14258868
-0.52793187 -0.17046641 0.19429094 -0.27320206 -0.5362528 0.13741755 0.039493788 0.18893762
-0.6651244 0.10129209 0.19185375 0.06245555 0.073661305 -0.13333093 0.12318704 -0.29518563
0.21292543 -0.25688508 0.13650146 -0.099420734 -0.39014652 -0.3537142 -0.32533148 -0.35402521
0.10194922 -0.10732918 0.26055083 0.041496668 0.112678565 0.067152396 0.23849653 0.09565178
-0.30594555 0.009454988 -0.06999476 0.14550202 0.15126446 -0.48568958 0.09250488 -0.059545808
-0.12670834 -0.0983938 -0.40319937 -0.22688986 0.19753732 -0.04241197 0.096753 -0.354765
0.07238218 -0.25086346 0.15440255 -0.3098319 0.16596518 -0.16635515 -0.04503349 0.13679618
-0.46167862 0.10292586 0.014131291 0.057758164 0.3923425 -0.009871813 -0.30020556 0.10289159
0.11657374 -0.6010829 0.01869398 0.11240053 0.34075037 0.09768945 0.15566827 0.20794623
-0.07549247 -0.25225008 -0.21282217 0.12636891 0.11683412 0.14254896 0.0016112656 0.122093245
0.063987434 -0.5921779 -0.12224988 0.02120567 0.098528914 0.1244979 -0.09250965 -0.5578743
0.12878948 0.13414505 0.20830627 0.10091495 0.27435717 -0.0012372507 -0.079339884 -0.016412873
-0.47981513 0.16280489 -0.23108245 -0.008899504 -0.085651144 -0.2503467 0.1191139 0.14006789
-0.3222741 0.34695098 -0.20993797 -0.23318112 -0.21452844 -0.465026 0.13169068 -0.10613127
-0.17336926 0.11035346 -0.032035638 0.07628363 0.20906049 0.058459852 0.12743004 -0.08849119
0.18189302 -0.06773859 -0.069269024 0.18656446 -0.019020282 -0.27523792 -0.3990056 -0.13733138
-0.1223273 -0.3382246 -0.17781903 -0.20039305 0.12378692 0.16198333 0.1942562 0.120641254
0.15558383 0.10202566 0.1642017 -0.26014495 -0.28010446 0.020155188 -0.08769306 0.06156612
0.22698012 -0.034767877 -0.42694572 0.13595946 0.14087561 0.07323908 0.12574035 -0.24776773
-0.107753165 0.17538644 0.039365843 0.12506716 -0.036380548 -0.48195145 -0.14664893 -0.2325161
-0.106905036 -0.23072776 0.14233927 0.05918713 0.09924789 -0.5278271 -0.33380225 0.24584754
-0.4048552 -0.10542739 0.08730069 0.16559282 0.0882154 0.14201808 0.06115989 -0.00483442
0.07537375 -0.01957207 -0.1314456 -0.29805577 0.10484839 0.0078976825 0.10846654 -0.16489027
0.16254538 -0.2462067 -0.18539785 -0.23436871 0.07295846 0.05858792 -0.33838132 -0.48284185
-0.0097377775 0.083302796 -0.38527942 0.1397306 0.16655608 -0.3900104 0.10660938 -0.12883621
0.17645079 -0.0324212 0.19302478 -0.09422415 -0.07516493 0.06572847 -0.16981438 -0.008474955
-0.20301828 -0.01823951 -0.03427812 0.14009374 -0.1183804 -0.31965917 -0.13504098 0.16116717
-0.06787698 -0.36164817 0.06648009 0.12779987 0.006216655 -0.06572301 -0.10468119 0.053576246
-0.39921322 -0.24558532 -0.37426916 -0.030361816 0.04828277 -0.2947252 -0.08576324 0.10111684

linear_layer_stack.6.bias f4 [10]
00000000: e6d0 47bd c37c 4bbe cec6 823e 32fd 8b3e
00000010: a6ab 11be 58df df3c 15ed 4cbe 30cc 1cbe
00000020: e0f7 983d f995 833d
-0.048783205 -0.19871812 0.255423 0.2734161 -0.14225635 0.027328178 -0.20012315 -0.15312266
0.074691534 0.064250894
