labos/trained_with_drive_model.pth (torch, 196647 bytes, 6 tensors)

linear_layer_stack.0.weight f4 [256, 55]
00000000: 19c0 ad3e bf01 2a3e 22eb 213d ad9e e33e
00000010: 9ce6 80be b319 543b 386a f5bd b655 7abd
00000020: 8d74 afbc dea1 f5bd b95b 5d3e d6ea dcbb
00000030: 55db 483f a860 fdbc ec1e 09bd c2db 18bc
00000040: d1de 70bd bcd3 28be 71b9 babd 5114 26bd
00000050: 5f24 81be fff9 a3bc 9f3b 2ebd 84e3 273e
00000060: eda5 45bd e6d7 98bd 57a0 09bb 47b2 f8bd
00000070: 5050 2fbe 8e84 39be 5251 813d a44c fcbe
00000080: 1dda d23d b3d7 8f3e 0406 13bd 9541 433c
00000090: 4ffb 81bd 5c5e 163e 7084 a83d 7246 8dbd
000000a0: 68ef 343e 1a8f 093d 262c 113e 54fa 323e
000000b0: a230 073e bfb5 e6be e972 793d b482 c33d
000000c0: cca7 103e fef5 c73d f635 dabd 9084 08be
000000d0: dd82 3e3d a628 1b3e 6ea5 ff3d cf08 ed3d
000000e0: 1c41 e83d 4d4d 513e 17db 823e 7690 bebd
000000f0: ccc3 2cbd db53 8bbd 8653 17be d50b a13b
00000100: 7810 063e 474f eebd e5d1 663e 10ff 453d
00000110: 7dfc c53c 2355 49be ccd3 a13d 19ae 923d
00000120: 7daa f93d 0532 92bd 4b19 333d 2556 dfbd
00000130: bf64 403e d42d 0f3e 0598 033e 9b04 c23d
00000140: 1de7 53be 3e53 e5bd 24bb 623c 5ab8 c3be
00000150: 6d79 493e 4cd1 023d b121 123e 1675 f9bd
00000160: e391 953d 6b8e d43d ccdd 193e a021 cf3c
00000170: bcb1 b13e 3acb 7a3c 491b a9be bc43 3dbc
00000180: 6989 b33e ace6 b13c d64e 86bd c30d e8bd
00000190: f64b 54bc 7cca 1fbd 4c23 053e 3081 7cbc
000001a0: 332e c13b 2e95 9abd ed21 7cbe b2dc 5bbd
000001b0: c9b9 453e 7ae8 b5bc 604b 16bd 7157 31bd
000001c0: e817 5b3e 6b91 8cbc 6e7f dfbd aca4 a0bd
000001d0: ffcb 07bd 9975 83be 7bc6 31be eb02 babd
000001e0: bb9c 3f3d 9752 8e3d 576d 18bd e20b 06bd
000001f0: 6a13 44bf 00c7 693d 5633 9fbd efd4 923d
00000200: 7111 423e 05b5 823d cad4 3f3e ca5d d43b
00000210: 2499 72bd 2337 cf3e 72e2 e43d 9207 00be
00000220: fdfe e1bd 8f48 c6be 03c8 25bc d7ff 08be
00000230: 35e9 1abd 9dfa 0ebf c5bb 2a3e b812 513d
00000240: e32d bd3d 0313 a63e 1fa3 09be 438a 0d3e
00000250: babc bb3d 1785 ec3c 724c 1e3d 9a69 adbd
00000260: 0979 38bc c8fa 9bba da2d 573d 56eb 46be
00000270: dbe2 0e3e f54f fabd 4d69 64be 5769 89be
00000280: fa31 dcbd fba1 063e 8da8 213e b39e a6be
00000290: 96da 563e a0a8 2dbd 336b 35be dbd9 673e
000002a0: 8686 693e eb2e 5ebe ad47 78be 701e 3b39
000002b0: e242 223e ca75 0abe 09e6 52be 3a71 06be
000002c0: 2260 2a3d 807c d13d cc0a a63d 48b7 38bd
000002d0: 0266 fb3d 1966 27be 55cc 35bd 51a8 5e3d
000002e0: 9335 693e 1e85 643e 5f48 033f 3752 a4bd
000002f0: 2cd9 ecbc dee6 373e 5366 0b3e a142 a63d
00000300: 9ddc c13e ebc3 843e be93 33be 2a6a c5bb
00000310: d383 e33c b936 46bd a8d0 9d3e d675 5c3d
00000320: 7e10 7bbd 82b4 8abe e061 8e3d ec59 8c3d
00000330: 42a7 48be bfc7 183e 5814 91bd 31e8 94bd
00000340: fee4 efbd a70d 963e 7705 023e 1aab 033e
00000350: 754a b6be e99e 81bd d508 113d 043e 7f3e
00000360: 1381 a3bd d308 483e c2d7 d8bc e33c ad3d
00000370: af66 9dbe d71e 9b3d 135c 2d3d 757c 19be
00000380: 8572 07be 84b6 84bd 62cc 0b3e 4805 5cbe
00000390: 82d5 d9bd b50e 37be e013 f2bc 8b1c 1e3e
000003a0: 9932 38bc 2022 793e 4f94 ef3e 4168 d0bc
000003b0: 329f 2d3e 40ea 3bbd bafd ffbc e1c9 96bd
000003c0: b010 843e c7e9 56be 0b6b 363d bf75 80be
000003d0: da76 94bd 7330 8c3e 265f bdbe d49c 8bbe
000003e0: 2f4e 6cbd 584a 8a3e 583d b7bd 6479 1e3e
000003f0: 0e67 143e bf96 12bf 8c70 ae3d 68d2 75be
0.3393562 0.16602229 0.03953088 0.44456998 -0.2517594 0.003236395 -0.1198315 -0.061116897
-0.02141788 -0.11993764 0.2161702 -0.006741862 0.78459674 -0.030929878 -0.033476755 -0.009329738
-0.058806244 -0.1648702 -0.091174014 -0.04054672 -0.2522306 -0.020016668 -0.042537328 0.16395384
-0.048253942 -0.07463054 -0.002100011 -0.12143379 -0.1712048 -0.18116972 0.06314339 -0.49277222
0.10295508 0.28094253 -0.03589441 0.011917491 -0.063467614 0.14684433 0.082283854 -0.06898202
0.17669451 0.033583738 0.14176998 0.17478305 0.13202146 -0.45060536 0.060900602 0.09546414
0.1412651 0.09763716 -0.106548235 -0.13331819 0.04651152 0.15152225 0.12482725 0.11573946
0.11340544 0.20439644 0.25557777 -0.093048975 -0.042178914 -0.068031035 -0.14777955 0.0049147406
0.1309222 -0.11636215 0.22541006 0.04833895 0.024168247 -0.19661383 0.07901725 0.07162113
0.12190721 -0.07138447 0.043725293 -0.10905103 0.18788432 0.13982326 0.1285096 0.09473535
-0.20693631 -0.11197518 0.013838563 -0.38226587 0.19675227 0.031937882 0.14270665 -0.121805355
0.07303216 0.103787266 0.15026015 0.025284588 0.34705913 0.015307242 -0.3302863 -0.011551794
0.35065773 0.021716438 -0.065580055 -0.1133075 -0.012957564 -0.039011464 0.13001746 -0.01541166
0.0058954 -0.07547985 -0.24622317 -0.05367727 0.19309153 -0.02220558 -0.036692977 -0.04329628
0.21395838 -0.017159184 -0.10912977 -0.07843909 -0.03315353 -0.25675657 -0.1736087 -0.09082588
0.04678033 0.069493465 -0.03721365 -0.032726176 -0.76592124 0.057074547 -0.077734634 0.0716952
0.18951966 0.06382183 0.18733516 0.006480907 -0.059228078 0.40471753 0.111760035 -0.12502888
-0.11034963 -0.38727233 -0.010118487 -0.13378845 -0.03782006 -0.55851156 0.16673191 0.051043242
0.09237268 0.3243638 -0.13441132 0.13822274 0.09166856 0.028872056 0.038647123 -0.084674075
-0.011259326 -0.00119003 0.05253396 -0.19425711 0.13953726 -0.12222282 -0.22305794 -0.2683818
-0.1075172 0.13147728 0.15786953 -0.32542953 0.20981821 -0.04239714 -0.17716675 0.22641699
0.22805223 -0.21697585 -0.24246092 0.00017845049 0.15845826 -0.13521495 -0.20595564 -0.1312913
0.041595586 0.102288246 0.08107528 -0.045096666 0.12275316 -0.16347541 -0.04438432 0.054359738
0.22774343 0.22316405 0.51282305 -0.08023494 -0.02891215 0.17959163 0.13613252 0.08118177
0.37863627 0.25930724 -0.17536828 -0.0060246186 0.02777282 -0.04839203 0.30823255 0.053823315
-0.061295025 -0.27090842 0.06952262 0.06853089 -0.19595054 0.14919947 -0.070839584 -0.072708495
-0.11713599 0.2930729 0.12697397 0.12858239 -0.3560368 -0.06329138 0.035408814 0.24926001
-0.07983603 0.19534616 -0.026470069 0.08458879 -0.30742404 0.075742416 0.042324137 -0.14988883
-0.1322728 -0.064801246 0.13652185 -0.2148639 -0.106364265 -0.17876704 -0.029550493 0.15440576
-0.011242532 0.24329424 0.46792838 -0.025440337 0.1695526 -0.045877695 -0.031248916 -0.07362724
0.25793982 -0.20987616 0.044535678 -0.25089833 -0.07249232 0.27380714 -0.36986655 -0.27268088
-0.05769175 0.27009845 -0.08947247 0.15475994 0.14492437 -0.5726127 0.0851756 -0.24006045

linear_layer_stack.0.bias f4 [256]
00000000: 4947 393d 5069 ccbe cc2a ecbe 16ae 86be
00000010: 4d3e dcbe ba5f 19be 0fb2 46be b311 41bd
00000020: 6221 be3d f179 c4be b70e 14bf 0b3e babe
00000030: 435c 32be c46d 373e 1684 18bf 39be c8be
00000040: e9bf 15be 6932 aabe 44dd 2ebe e730 abbc
00000050: 6b3c 133e 138a 41be 2dc1 20bd c8be 48be
00000060: 6018 8abe 6c01 5abe d185 bcbe 70b4 253b
00000070: be8d c2be 20f3 c8be d1e3 6abe 458c 48bf
00000080: 5f24 9bbe 825f 88be 687f d2be 891b 06bf
00000090: f68c e2be 9bf4 e1be 05fe eebe efa6 5fbe
000000a0: 68dc c4bd c0f5 c5be f3e6 ffbe 6085 6dbe
000000b0: 0898 19bf 7971 83bd e3fa f4be ad11 0abf
000000c0: 705f e8bd 4627 44be b305 9bbe 5b50 9fbe
000000d0: cfbf 60be 9eb1 b7be 5f12 91be 50e3 28bd
000000e0: 671e 4cbe 8cae ecbd 2c7e 0bbe 24b0 4bbe
000000f0: 561d d1bd 94cd f0be 9ea5 8cbc 1be9 b73c
00000100: a560 52bd 236e cebe edab aebe aecb 8dbe
00000110: 6e41 db3d 69b3 593d b784 943d c1bc 7ebd
00000120: fac1 4b3c f635 b43d 73e0 e6be 8733 c9bd
00000130: eecc 70be 209b 9dbe ba11 8bbe cd6d b9be
00000140: 82f9 76be 8280 5cbe a837 a13c cb35 2ebe
00000150: 3f8a 99bd 7a55 97be c408 1e3d 8418 8bbe
00000160: 5a40 39be 870f 12bf d73d 18bf d076 d0be
00000170: 2499 20be c354 e1be ba62 f6be 2bbf 6dbe
00000180: 5963 29be b907 97bd b680 f33d dc4a eabe
00000190: abe3 a9bd 6324 c9be 003f 81be eedb 92be
000001a0: a1f8 a0be fb06 54be 60d7 f4be 92cf 33be
000001b0: 78c7 9ebe cd50 56be d79b aa3d 5788 63be
000001c0: 18ef 50be d7e3 41bd bbdd fdbe d0a3 34be
000001d0: e854 13be d238 d5be a8f8 b7be afe7 d23c
000001e0: 522a bebe 3bc3 7cbd 8e7b 11be eae7 cfbe
000001f0: 13c1 5ebe dbed c8be f59e ecbe 7cb9 72bd
00000200: c0b1 90bd dba6 e8be a8dd e9be fc70 02bf
00000210: 5533 e3be 5d72 07bf 6468 b0be 468e 36bf
00000220: 0030 e4be faea c3be da39 afbd 0110 98be
00000230: 2b49 a2be 6946 a1be 1c1a d5be 28b8 79be
00000240: 5c91 b6be cd35 d8be ace0 bdbd cd7e 9fbc
00000250: 5761 b7be a071 453a c677 27bd f59e 01bf
00000260: 8b70 3f3e 7c05 9dbe 65c6 1abe 49c2 94be
00000270: 039e b7be 247c 59be e7da 49be 82c8 9a3d
00000280: 3ab9 e9be 371f 2fbe e57b bdbe b60a d2bd
00000290: 5850 15be 8068 733d 9f1d 03bf 8765 b8be
000002a0: 2cb2 033c db17 dbbe 4017 e9be 62b3 5abf
000002b0: 531e dbbe fb0c 3ebe 4b32 12bf 7e41 33be
000002c0: 0978 11bf 910b dcbe 4a5a 0a3d e114 ecbe
000002d0: 59ea b3be fef6 bfbe 0cd1 80bd 9a2e 10bb
000002e0: b1f7 85be 32d4 713e f1cb cdbe e462 3dbe
000002f0: 8afc 38be 6541 09bf 43b3 12bf f26e 85bd
00000300: 90a9 fcbd 81f1 68be 1b4f 81be eed4 b4be
00000310: 0ac7 31bf 8b3f 5b3d 4ed9 35be 761d 60be
00000320: 5ed0 88be 8b71 8cbe 9ab7 4dbd 9888 1cbe
00000330: 4d5c 84be 1637 26bf b36c 66be 4376 6bbd
00000340: 1f3c 0d3e e526 bebd 758f bebe 750d 19bf
00000350: c513 533e f3c2 f0be 8863 10bf c594 b8be
00000360: 9b7f e3be 8cf5 a0be f8e4 05bf a56f 20be
00000370: cd57 9bbe 20d2 c5be ea37 8cbe f80c 8abe
00000380: bc66 5ebe 990d cfbd 2aac 2b3e 8dcb d1be
00000390: b68d 2ebe c836 cebe df06 9fbe 999e b9be
000003a0: d741 97bd c7bb 0abf fa0d 96be 95ca 10bf
000003b0: 0876 aabd 0921 d4be 368b 0ebf 3520 4cbe
000003c0: c2a4 1ebe 15e3 5fbe 8dd8 aabe c94b f0be
000003d0: 3a63 64be 0284 8f3d ba29 adbe 5d2f b9be
000003e0: fa96 f8be 3272 88be c588 40be 41c2 a5be
000003f0: 5523 e6be 50be b2be 8d8b 82be 720b 3abd
0.045234 -0.39924097 -0.461264 -0.26304692 -0.43016282 -0.14977923 -0.19403861 -0.04713602
0.09283711 -0.38374284 -0.57834953 -0.3637546 -0.17418008 0.17912966 -0.5957655 -0.39207628
-0.14623989 -0.33241585 -0.17076594 -0.020897342 0.14378516 -0.18900327 -0.039246727 -0.19604027
-0.26971722 -0.21289605 -0.36820844 0.002528455 -0.37998766 -0.3924799 -0.22938468 -0.78339034
-0.30301186 -0.26635367 -0.41112828 -0.52385765 -0.4424817 -0.44131932 -0.46678177 -0.21841024
-0.09612352 -0.38664055 -0.49980888 -0.2319541 -0.59997606 -0.064181276 -0.4784766 -0.5393322
-0.11346328 -0.19155607 -0.30277786 -0.31115994 -0.21948169 -0.358777 -0.2833433 -0.041232407
-0.19933473 -0.1155673 -0.1362235 -0.19891411 -0.102106735 -0.47031844 -0.017168816 0.02245002
-0.0513617 -0.40318403 -0.34115544 -0.27694458 0.10705839 0.053149614 0.07251876 -0.06219173
0.012436384 0.08799355 -0.45093116 -0.09824281 -0.23515674 -0.30782413 -0.27161962 -0.36216584
-0.24118617 -0.21533397 0.01967986 -0.17012708 -0.074970715 -0.295574 0.03858258 -0.2716714
-0.18090954 -0.5705494 -0.5946936 -0.40715647 -0.15683419 -0.4400998 -0.48122197 -0.23217456
-0.16541804 -0.0737452 0.11889784 -0.45760238 -0.08295377 -0.39285573 -0.25243378 -0.28683418
-0.3143969 -0.20705788 -0.47820568 -0.1755965 -0.31011558 -0.2092926 0.08330505 -0.22219978
-0.20403707 -0.047336426 -0.4958323 -0.17640615 -0.14387858 -0.41644913 -0.35931897 0.025745241
-0.37141663 -0.061709624 -0.14207289 -0.40606624 -0.2175334 -0.3924397 -0.46215025 -0.059258923
-0.07065153 -0.454398 -0.45676923 -0.5095365 -0.443751 -0.5290888 -0.34454644 -0.7131084
-0.4456787 -0.3826521 -0.08555956 -0.2969971 -0.31696448 -0.3149903 -0.41621482 -0.24386656
-0.35657775 -0.42228547 -0.092713684 -0.019469643 -0.35816452 0.0007531885 -0.04088571 -0.50633174
0.18695275 -0.30668247 -0.15114744 -0.29054478 -0.3586274 -0.21238762 -0.19712411 0.07557775
-0.4564913 -0.17101751 -0.37008587 -0.10255949 -0.1458143 0.05942583 -0.51217073 -0.3601496
0.008038085 -0.42791638 -0.4552555 -0.85429966 -0.42796573 -0.18559639 -0.5710799 -0.17505452
-0.56823784 -0.42977574 0.033777513 -0.4610968 -0.3513973 -0.37493128 -0.062898725 -0.0022000433
-0.26165536 0.23616102 -0.40194657 -0.18494755 -0.18065086 -0.5361541 -0.5730478 -0.06515302
-0.12337029 -0.22748376 -0.25255665 -0.35318702 -0.69444335 0.053527396 -0.17758676 -0.21886238
-0.26721472 -0.27430376 -0.050223924 -0.15286481 -0.2585167 -0.64927804 -0.22502403 -0.05748583
0.13792466 -0.09284762 -0.37218824 -0.5978616 0.2061301 -0.47023734 -0.5640187 -0.36051002
-0.44433293 -0.31437337 -0.52302504 -0.15667589 -0.30340424 -0.38636875 -0.2738641 -0.2696302
-0.21718878 -0.101100154 0.16764894 -0.4097561 -0.17046246 -0.4027617 -0.3105993 -0.36253813
-0.07385605 -0.54192775 -0.29307538 -0.56559116 -0.08323294 -0.41431454 -0.5568117 -0.19934161
-0.15492538 -0.21863969 -0.3336834 -0.4693282 -0.22303477 0.070076 -0.33820897 -0.36168948
-0.48552686 -0.26649624 -0.18802173 -0.32374766 -0.4494883 -0.34910822 -0.25497094 -0.04542107

linear_layer_stack.3.weight f4 [128, 256]
00000000: 8ea0 b33c dad8 5f3e 44a0 eb3d 0ca4 20be
00000010: a21e 0d3e d766 14be 0cc5 1c3d 8fff c5be
00000020: 8aad ddbc 3a8b fabd afc9 10bd f800 573e
00000030: 5533 88bc d706 e4bd 02ba 6b3e e857 143e
00000040: 9dd5 3bbd 26a5 2ebe 7e0f 51bd 65b8 93bc
00000050: 46bf 823e 38e4 303e e9d8 c13d b552 033c
00000060: d851 973d eae7 43bd b628 943d 1b04 b7bc
00000070: 669e bb3d a200 56be 01e1 743d c4e2 783d
00000080: c471 a3bb 47cb 28bd e98f 143e 6556 e0be
00000090: 5e6b a7bd dc42 ae3c 0acb 9ebd c0e7 90bd
000000a0: 404b 1db8 aa83 46be ea5f 2fbd 61c4 a3bc
000000b0: 0925 56bd 8530 c63c c09b 783d a745 c13d
000000c0: 3cdf 10bd 84f1 a5bd 9778 f43d 6088 813d
000000d0: 1625 0abd 4b4d 683e c0b7 473d 8ee8 583d
000000e0: 643e 433c 5394 b13e e2b0 8f3d 4294 b2bd
000000f0: 6cd8 0fbe 579f 903d 1b35 b9bd ac3e b53d
00000100: f3a8 babc 99ea a53d 3632 9b3e 55e1 b73d
00000110: 84d4 8cbe fcda c7ba 88fd 66be 1884 9a3d
00000120: 8a5d c53d 8b78 8a3d 5b2a 0c3e f172 893d
00000130: 859d 54bc b9df 253d c268 5ebe e79e 083d
00000140: 95c2 f3bd 79d0 98bb 062a fb3d 2bff 193c
00000150: 3058 cf3d c8c5 153e f350 ca3d fb8b c23d
00000160: 7683 55be 42ce a33e 6af3 873e dd74 5f3e
00000170: 624f 353b ce47 ff3b 93ab 0d3e cfa9 3a3d
00000180: dbfb cd3d 8c96 e43a 4e61 613e fd54 b3bd
00000190: afa2 4dbd c6ec bf3d c7b2 bd3d 7b27 fb3c
000001a0: d787 b2bd d01d a03c 5a43 553e 667a 093e
000001b0: 6631 79bd b35e 2e3d 3a1b 1f3e 41eb 1f3d
000001c0: d154 223d c46b 473e 323e 8d3a 1a56 253e
000001d0: be69 983e 1698 543e 5757 08bb 7171 ce3b
000001e0: b9a0 403c 6cd4 163e 4363 48bb 56a9 11be
000001f0: 6d07 84be 8fac 883c 40db 2cbe 7a60 b43c
00000200: c4ce 143e 14a6 323d fd93 d9bd 7443 8f3d
00000210: 3fea 123d 336d 203c 9694 333e 107c 19be
00000220: 4a3d a8bc b22f a1bd 1e70 c8bd 9857 8ebe
00000230: 5881 33be c299 8f3d 4b3e 0ebe a3dc 143d
00000240: 1480 753d b011 883c 45b2 2fbe 4375 8bbd
00000250: a3eb d23c b2be c6bc 9ed3 e3bc f741 7cbe
00000260: bb90 babd c694 3e3c 8c9c e83d b54b efbd
00000270: 03cc 93be d629 a6bb c81d 623e 0228 983c
00000280: 43cd dc3d 5a6c aebe d95d 2abe 9e5d b03d
00000290: a214 293e 9395 b439 bbbf 3dbe b061 2f3c
000002a0: 685b bd3d 6ff3 d03d 5010 14be c2b9 913e
000002b0: 925c ecbd e342 3dbd feda 36be 2aa3 0dbe
000002c0: c708 b13d 6861 303d a815 7c3d 5160 3ebe
000002d0: a580 4dbd e399 9abd dc36 4d3d b6e5 babd
000002e0: 1c23 a73d 8fc4 873d b053 513d 59eb 5e3d
000002f0: d5f4 003d 8cab 983d 4232 6fbe d7a6 e6bc
00000300: 19a2 c9bd c9ee 333d b00c 713e 7d94 65be
00000310: 9d3f e9bd d61c f7bd e3b1 d03c 45d9 ac3d
00000320: bab3 84be 4c19 6c3d afcc d4bd 1186 913d
00000330: f8ea 59be 9e98 89bc 1d2b fd3c fa6d 883b
00000340: c47b 143c eab0 b43e 3bc0 963d 465d 333c
00000350: 3add dabc 29f7 4ebd 8ba7 3abe 589f f63d
00000360: aa91 06bd 5b5f 1ebe 67a5 8a3d 91ed 0ebd
00000370: a614 d5bd bdad 9bbd 07a9 1b3e fb7e 2b3d
00000380: 68e0 c4bd bfd1 c23d c54a 23be 31ba 4e3e
00000390: b934 843e 8d72 2f3d 81b3 bdbd b86b d5bd
000003a0: bfc6 21be ff69 833d 2f3b 8f3d ad08 653d
000003b0: f8d4 203d 70eb 3e3e 320a c8bd c325 dbbe
000003c0: cbf9 8a3d 06d0 cbbc 3136 b8be 68a7 81bc
000003d0: ac31 31bd a1c9 f73c 798d 41be 3041 debd
000003e0: 58ac 973d 2e23 87be 08cf 9239 47cd af3d
000003f0: 6d91 a03d 4dea 5c3d 2351 b5be 77c0 6a3d
0.021927144 0.21860066 0.115051776 -0.15687579 0.13781217 -0.14492355 0.038273856 -0.38671538
-0.027060289 -0.122335866 -0.03534859 0.20996463 -0.01662604 -0.11134117 0.23020175 0.14486659
-0.045858014 -0.17055187 -0.051040165 -0.018032262 0.25536555 0.17274559 0.094652005 0.008015324
0.07388657 -0.047828592 0.072343275 -0.022340825 0.091610715 -0.20898679 0.059784893 0.060763136
-0.004987927 -0.041209485 0.14508022 -0.43815914 -0.081747755 0.021272115 -0.077535704 -0.07075453
-3.75018e-05 -0.19386163 -0.04281608 -0.019991102 -0.052281413 0.024193058 0.06069541 0.09437113
-0.035369143 -0.08102706 0.11937063 0.063248396 -0.033726774 0.22685735 0.048759222 0.052956156
0.011916731 0.34683475 0.070161596 -0.08719684 -0.14047402 0.07061642 -0.09043332 0.08849844
-0.02278564 0.081013866 0.30311745 0.089785255 -0.27505887 -0.0015247758 -0.22557652 0.07544726
0.09636982 0.06761273 0.13688032 0.067113765 -0.012977009 0.04049656 -0.2171965 0.033354666
-0.11902348 -0.0046635238 0.12263875 0.009399216 0.10124242 0.14626229 0.09878721 0.094993554
-0.2085093 0.319933 0.26552898 0.21821924 0.0027665724 0.007790542 0.13834982 0.0455721
0.10057803 0.0017439886 0.22009775 -0.087564446 -0.050203975 0.09371333 0.09262615 0.030658474
-0.08717316 0.019545466 0.20826474 0.13425598 -0.060838126 0.04257078 0.1553773 0.039042715
0.03963167 0.19474703 0.0010775982 0.16146126 0.29768175 0.20761141 -0.0020804012 0.0063001444
0.011757069 0.1472947 -0.0030576743 -0.14224753 -0.25786915 0.016683845 -0.16880512 0.02201866
0.14532 0.043615416 -0.1062393 0.069952875 0.035867926 0.00979166 0.1753715 -0.14988732
-0.020537037 -0.07870425 -0.0978701 -0.27801204 -0.1752981 0.07011749 -0.1389095 0.036343228
0.059936598 0.016609997 -0.17157848 -0.06809475 0.025747126 -0.024260852 -0.027810868 -0.24634539
-0.091096364 0.01163215 0.11357984 -0.11684362 -0.28866586 -0.005070905 0.22081673 0.018573765
0.10781338 -0.3406704 -0.16637363 0.08611606 0.16511777 0.00034443717 -0.1853017 0.010704443
0.0924595 0.10202681 -0.14459348 0.28462034 -0.11541094 -0.046206366 -0.17856976 -0.13831773
0.08644252 0.043061644 0.06154409 -0.1859143 -0.050171513 -0.07548883 0.050101146 -0.09125845
0.081609935 0.066292875 0.0511052 0.054423664 0.03148349 0.07454595 -0.23359016 -0.028155727
-0.09845371 0.043928895 0.23539996 -0.22419925 -0.113890864 -0.12066047 0.025475448 0.084398784
-0.2591837 0.057641312 -0.10390603 0.07105649 -0.2128104 -0.016796406 0.030904347 0.004163501
0.009062711 0.35291225 0.07360884 0.010947531 -0.026716817 -0.05052868 -0.18227975 0.12042111
-0.03285376 -0.15466063 0.06769829 -0.03489453 -0.10404329 -0.07601497 0.15201198 0.041869145
-0.096131146 0.09512662 -0.15946491 0.20188214 0.25821474 0.042833854 -0.09262753 -0.10420936
-0.15798472 0.064167015 0.0699371 0.055916477 0.039265603 0.186445 -0.097675696 -0.42802247
0.067859255 -0.024879467 -0.35978845 -0.015826896 -0.04326026 0.030247511 -0.18901624 -0.10852277
0.07405919 -0.26394027 0.0002800154 0.085840754 0.07840238 0.053934384 -0.35413465 0.057312455

linear_layer_stack.3.bias f4 [128]
00000000: 0207 8c3d 2b77 8a3e 6e08 d83d 2b43 2e3e
00000010: d371 3c3e dbd5 3a3e ac3b 39be 3060 1b3e
00000020: 140f 423d 5754 b63d 5572 2fbe 72a4 1abe
00000030: fe6a 83be 6f17 5d3e 1440 3f3d 6a99 6ebe
00000040: f829 a73e 3ed7 a4bd 5efc 633c 3e91 0c3c
00000050: 1222 9cbe 2366 473c 9496 203e 90f5 9b3d
00000060: bb93 1d3e a5eb 8f3e 6922 2a3e e80c 123d
00000070: cff5 193c ab82 ebbd 8850 8ebb dc92 b9bd
00000080: f900 23be 8d0e dabd 0e5a 7abc 4395 9f3d
00000090: f0f5 413e c8d9 73be 346c 463e 2de9 3e3e
000000a0: 9160 20be bcf2 da3d 7410 163e cf0c a93e
000000b0: 2279 aa3c 584e 843d 36ba 17be 3651 1b3e
000000c0: fec2 2abd f217 403e c2ba 0dbd 0e49 263e
000000d0: 8262 733e e33d 913e 3276 76be a7d6 a53e
000000e0: 2e81 efbd 33e0 733e 9b86 153d 13c7 3c3e
000000f0: 1b67 2f3e 2f70 253e 240d ac3d d054 933d
00000100: 72d5 103e b2ef 493e 796a ec3c 226a 0fbb
00000110: f7b0 2abd 87bc 54be 9512 07be 4456 113e
00000120: e6ba d93d cf37 02be 3d97 afbd 2f69 133e
00000130: db36 96be 4c67 383e 8d5a c73d dff1 1f3e
00000140: 9d58 603e a8a4 39bd 34f2 533e c886 69be
00000150: 9d2d fdbd 571d 9b3e 3ab7 933e 7a47 993c
00000160: 20fc a03d a44f d73e 8d66 273e f4e6 1dbe
00000170: b9fc 87be 8dbc 4c3e 21e4 223d ecd2 52be
00000180: e0ea 2cbe 1f5c 88be d845 a8bb a6ff 78bd
00000190: 2cef a93e 9d9f c23d 8734 8f3e 34e7 303e
000001a0: a384 4cbd 13f6 693d 591c 803c 18d0 fcbd
000001b0: 91d3 363e 281e 393e 4c0b a3be d948 d63b
000001c0: c47b 4abd 9e62 a53d 3c16 3b3e 4c01 143e
000001d0: ea37 d2bd 690a 593c 6031 3ebe a399 49be
000001e0: 1671 4f3d 3c20 3b3d f964 e63b 3487 2e3e
000001f0: 74a0 66be 2663 e7bc 15b3 0fbe b62b 1dbe
0.06837274 0.27044043 0.10548483 0.1701781 0.18402795 0.18245642 -0.1808917 0.15173411
0.04737766 0.08902805 -0.17133458 -0.15101793 -0.25667566 0.2159097 0.04669197 -0.2330071
0.32649207 -0.08048867 0.0139151495 0.00857955 -0.30494744 0.012170347 0.15682441 0.07615197
0.15388386 0.2810947 0.16614689 0.03565684 0.009396984 -0.11499532 -0.004343096 -0.09061214
-0.1591834 -0.106473066 -0.01528026 0.07792141 0.18941474 -0.23813546 0.19377214 0.18643637
-0.15661837 0.10690829 0.14654714 0.33017585 0.020809714 0.064602554 -0.14817128 0.15167698
-0.041689865 0.18759134 -0.034601934 0.16238806 0.23768046 0.28367528 -0.24068525 0.3239033
-0.11694561 0.23815994 0.036505323 0.18435316 0.17129175 0.16156076 0.08400944 0.07193911
0.14143923 0.19720343 0.028859364 -0.0021883328 -0.041672673 -0.20775042 -0.13190682 0.14193064
0.10631351 -0.12716602 -0.08573768 0.14395593 -0.29338726 0.18008155 0.09734068 0.1561961
0.21908803 -0.045323044 0.20697862 -0.22805321 -0.12362216 0.30295822 0.28850728 0.01871084
0.07860589 0.42052948 0.16347714 -0.15420133 -0.2656 0.19993801 0.039768342 -0.20588273
-0.16886473 -0.26632783 -0.005135279 -0.06079068 0.33190286 0.095031 0.27969763 0.17275697
-0.04993118 0.05711944 0.015638517 -0.12344378 0.17854144 0.1807791 -0.31844556 0.006539446
-0.04943444 0.0807545 0.182702 0.1445362 -0.10264571 0.013247111 -0.18573523 -0.19687514
0.050644957 0.045685038 0.00703108 0.17043763 -0.22522146 -0.02824552 -0.14033158 -0.15348706

linear_layer_stack.6.weight f4 [10, 128]
00000000: 445f e23d 0d4c ae3d aae5 ef3a 88fa 05bf
00000010: 7a1b fcbe 34c0 a9be 3d8b 163d c7b9 49bc
00000020: a42a 98be 10d6 93be d740 8fbd 04ab 0cbe
00000030: c169 0d3f 8516 06bf 59d1 75bd 66f6 1cbe
00000040: 3fbf bdbd ec82 5d3d 4ac9 16bf 2324 603d
00000050: 8b70 993e 5cf3 bfbe 9f44 b9be f3ab c4bd
00000060: f20c bbbe fa44 25be 751b 503e 7dc7 1fbe
00000070: f2a7 a6be e7da 053e c255 82bd a7df f23d
00000080: 6548 9ebe 66f1 dcbc 384d 2b3e 0422 55be
00000090: c3bd bc3d 9044 d3be 8990 f43d e618 66be
000000a0: c682 643e ef68 c1bd dff4 233e a809 a2bd
000000b0: aea1 c2be f93b 13bf b21d 82be f429 d6be
000000c0: 1282 8dbe 38b1 d8bd 58a7 a63e ac9f 77be
000000d0: b54b 463e 3391 cd3d 51b3 903e 4a54 963d
000000e0: 6f1e 12bf 072b 5f3d dab3 9dbd e3c0 c63d
000000f0: a310 003d ccc5 1bbf 9bb0 5c3e 1952 7a3d
00000100: a6eb 683d 7f8b 0a3e 38bf dfbe d5ec 0fbe
00000110: 5da5 7c3e df7a 0e3e 41c5 f5bb a4d8 b8bd
00000120: 0c41 0dbe f936 70be 59be 7a3e 6140 8bbe
00000130: f2cb 093e b69e cabd 7d78 743d 80b2 693e
00000140: b673 66be a0cb 173e e517 043e ec5a b0be
00000150: 26be cbbe 5cc4 1bbe 4af4 2fbe 909d 8c3e
00000160: 80c7 253e 72e4 12bf 39df f73c 5810 59bc
00000170: cc37 713d ee95 b83c db1a 263e fb80 673e
00000180: 6151 b33e 509a e1be 635f 92be 6ac9 f13d
00000190: e0c0 5b3e 9ade 183e 456a babc 92e4 403e
000001a0: 8e3e 47bd 493c 27bf 0d7f 9b3c ed7e 083e
000001b0: 03f3 6e3d b199 d43d c605 d3bd 72df f6be
000001c0: 838f 1e3e 3d7d d53d 896c ea3d f600 d43d
000001d0: df1f 5b3e e040 b63c 40be 44be d751 ae3c
000001e0: 6dfe c0be 681a 1b3e f70b fabd ec1a 183d
000001f0: 5535 14be 6661 01bd 8a98 2d3e 5491 d43d
00000200: f736 c7be 5849 953d 6b40 1cbe 73ef b6be
00000210: e0de aebe bfd8 9ebe 3b1b e73d 9879 fcbc
00000220: f3ae 7dbe 82cf f23d d7c5 38bd 1ddc 1c3e
00000230: a722 95bc 3ef7 89bc ecf3 5d3d 6c3b a4bd
00000240: 2425 483d 3b53 9fbe 68f0 c7bc 63d7 303e
00000250: 984c babd fc4a 90be fa2b 2ebe d54a 98bd
00000260: 9dd2 193e a0a1 0cbf e24b 07be f8c7 39be
00000270: 09d6 7d3e 3a03 c53d 00a1 4a3e 59dc 063e
00000280: 2af4 113e bb50 043e 12b3 0b3e 3907 fdbd
00000290: 9291 4bbe 58eb cbbd 5ffd e8bd 8c48 7e3c
000002a0: f16e a73d 0757 d5bd cb63 fbbe 95c9 6a3d
000002b0: ead6 103e e7ce b93d 6c06 403e 7aef cdbe
000002c0: 7d19 19be 8b74 1d3e baf4 433d 545c 3dbd
000002d0: 0f29 c83d 5681 0abf 1986 38be c680 24be
000002e0: f7a4 173e b1b5 83be 7b82 e43d d0ae 6c3d
000002f0: 9abc 9b3d d114 a7be e140 b4bd 41d4 303e
00000300: 6246 f4be 30ef 3cbe c739 0a3e 8b9b 2c3e
00000310: faa5 ce3d bc1f d13c e526 8b3d 7415 da3d
00000320: d98e 1f3c 37ca 903e 4f7f 00be b3d9 a4be
00000330: 284c 883c c275 543c df90 df3d ef4d b0be
00000340: 0a04 183e b498 c3bd e4fd 84be 7854 bbbd
00000350: c35a 183e 9771 de3d 1800 bebe 85ab a2be
00000360: 00a8 f03b 35fb f23d c798 a0be 259c d9bb
00000370: f867 273e c5fb c7be b132 073e 310f 40be
00000380: 1fc8 a03d f3df 89bd 3838 5a3e 5344 dfbd
00000390: 0826 b3be 4a41 703d c2ab 37be 6b89 0bbe
000003a0: 984d 97be ec93 2dbe 400c b8bd 1ef6 173e
000003b0: ff10 34be 8ffe e2be 5333 fd3d b8a1 393e
000003c0: a4d4 93be 6786 11bf 6ede 343d 5f54 7f3d
000003d0: 1b41 9ebd 5d8e 10be 37b7 2dbe afdf cf3d
000003e0: a6ca c2be 53f6 b7be c00d dfbe 6b74 8abd
000003f0: 574a 4e3e d61a 77be 2b91 95bd d556 db3d
0.11053327 0.08510599 0.0018302698 -0.52335405 -0.49239713 -0.33154452 0.03675388 -0.012312359
-0.29720032 -0.28874254 -0.06994789 -0.13737112 0.5523949 -0.5237811 -0.060014103 -0.15328369
-0.09264993 0.054079935 -0.5890089 0.054721963 0.29968676 -0.37490356 -0.36185166 -0.09603109
-0.36533314 -0.16139594 0.20322974 -0.15603442 -0.32550007 0.13071786 -0.06364013 0.118590645
-0.30914608 -0.026970576 0.16728675 -0.20813757 0.09215882 -0.41263247 0.119416304 -0.22470436
0.22315511 -0.094438426 0.1601138 -0.07911998 -0.38013977 -0.57513386 -0.2541328 -0.41828883
-0.27638298 -0.10580677 0.32549548 -0.24182004 0.19364817 0.1003746 0.28261808 0.073402956
-0.5707769 0.054484393 -0.077003196 0.09704759 0.031265866 -0.6084869 0.21551745 0.06111345
0.056865357 0.13529776 -0.43700576 -0.14055188 0.24672456 0.13914059 -0.007500321 -0.09025696
-0.13794345 -0.2345847 0.24486674 -0.27197555 0.13456705 -0.09893553 0.05968522 0.22821999
-0.22505078 0.1482377 0.1289974 -0.34444368 -0.3979351 -0.15211624 -0.17183033 0.2746396
0.16189384 -0.5737983 0.030257808 -0.013248526 0.058891103 0.02253243 0.16221182 0.22607796
0.35023025 -0.44063044 -0.285884 0.11805995 0.21460295 0.14928666 -0.022755751 0.18837193
-0.04864364 -0.6532636 0.018981481 0.13329668 0.058337223 0.10380877 -0.103038356 -0.4821735
0.15484433 0.10424278 0.11446483 0.10351746 0.21398877 0.022247732 -0.192132 0.021279259
-0.3769411 0.15146792 -0.12209313 0.03713505 -0.1447347 -0.031587027 0.1695272 0.10379282
-0.38909122 0.0728938 -0.15258949 -0.3572956 -0.34154415 -0.3102474 0.11284491 -0.0308197
-0.24773769 0.11855985 -0.04511055 0.15318342 -0.018205 -0.016841527 0.0541877 -0.08019146
0.048863545 -0.31118187 -0.024406627 0.17269664 -0.0909664 -0.2818221 -0.17008963 -0.07436148
0.15021749 -0.5493412 -0.13212541 -0.18142688 0.24788679 0.09619756 0.19787979 0.13169993
0.14253297 0.12921421 0.13642529 -0.12354893 -0.1987975 -0.09956998 -0.11376452 0.015520226
0.08175457 -0.1041699 -0.49099573 0.05732115 0.14144483 0.090726666 0.1875245 -0.4022177
-0.1495113 0.15376489 0.04784081 -0.04623063 0.09773456 -0.541036 -0.18019904 -0.16064748
0.14809023 -0.25724557 0.111577 0.0577839 0.07604332 -0.3263307 -0.08801437 0.17268468
-0.47709948 -0.18450618 0.13498603 0.1685621 0.10090251 0.025527827 0.06794528 0.10648623
0.009738647 0.28279278 -0.12548564 -0.3219734 0.016637877 0.012967529 0.10916304 -0.3443446
0.14845291 -0.0955061 -0.25974953 -0.091469705 0.14878373 0.10861509 -0.37109447 -0.31771484
0.007344246 0.1186432 -0.3136656 -0.0066409283 0.16348255 -0.39059272 0.13202931 -0.18755795
0.0785067 -0.06732168 0.21310508 -0.10901704 -0.34989953 0.058656015 -0.17936614 -0.1362664
-0.29551387 -0.16950959 -0.089867115 0.1483998 -0.17584608 -0.44334838 0.12363305 0.18128097
-0.2887317 -0.56845707 0.044157438 0.062336322 -0.07727262 -0.14116807 -0.16964422 0.10150086
-0.38045233 -0.35930118 -0.43565178 -0.06760486 0.20145546 -0.24131331 -0.07303079 0.10709921

linear_layer_stack.6.bias f4 [10]
00000000: 7caf 3dbc 00f9 1dbe 7ec2 6b3e 8a7a 9d3e
00000010: ace3 9dbd 34d5 cc3c e8fa 3ebe bb03 6dbe
00000020: 5dcb aabc 42a3 f83d
-0.011577483 -0.15427017 0.23023412 0.30757552 -0.077094406 0.025004007 -0.186504 -0.23145954
-0.020848924 0.12140514
